Watch_exercise_measurement/Creative_model/jupyter_ResidualBlock_VeryDeepRegressionModel.pth (torch, 661877 bytes, 79 tensors)

input_layer.weight f4 [64, 4]
-0.24545586 0.098389044 -1.3538446 0.16335334 -1.8955623 -1.4092908 0.6069946 0.5209971
-0.2608055 -0.23311448 0.070945024 -0.46296602 0.21158218 -0.21284693 -0.4417084 -0.40452898
0.2839433 -0.25696763 -0.3801595 0.053383715 -0.74624807 0.2037117 0.120192274 0.7060478
0.6051527 -0.16984315 0.041682888 -0.28778628 -0.55632764 0.17958912 0.11906628 1.0892671
0.47707525 0.013287966 0.5587845 -1.0738993 -0.11472887 -0.28955448 -0.14010781 -0.05559045
0.19245614 0.1193775 0.399647 0.08903258 -0.9852941 0.15682015 0.08633841 0.10537245
-0.9890252 0.22393896 -1.1370649 0.2818782 1.0126673 0.0022201377 -0.73423827 -0.2819204
0.40071195 -0.5791928 0.5193631 0.3473702 0.049255967 0.11472229 -1.2241858 -0.79865754
-1.0304468 0.16771169 -1.1198802 -0.44644794 0.7005676 -0.035307538 0.10016937 -0.06696724
0.34352753 -0.5167618 0.43122834 0.37173033 0.6620024 0.010267067 0.50932425 0.35265806
1.0048422 0.17008756 0.36184296 -0.22116822 -1.0117468 0.2892821 0.6916084 0.25652158
0.44008565 -0.13602433 0.15802805 0.546509 0.38984555 0.10511018 0.05386853 -1.4166853
-0.09797503 0.02085965 -0.95641625 0.8049735 -0.2950734 -0.4732145 -0.35653824 -0.09130448
-0.029860795 -0.022560716 -0.1728009 -0.003627956 0.12330642 -0.03802289 -0.104582265 -0.55763334
-0.2605563 0.06944166 0.37913463 -1.3050398 0.27287215 -0.052957907 1.1280122 0.8942957
-0.47197306 -0.11434746 -0.23001206 -0.041667342 -0.7192384 0.17538956 0.91188425 -1.2872427
-0.70814645 0.19125931 0.8748648 -0.7831365 0.8966627 0.23211747 -0.71496254 0.29288366
-0.9850338 0.28217912 -0.69868916 -0.594297 -0.092739 -0.46160716 0.7565911 0.6634442
-0.12665075 -0.019818485 -0.40131402 0.2585243 0.29553148 0.17178236 -0.8765504 0.3099977
-0.050116524 -0.029780399 0.9677831 0.0718187 0.46006384 -0.19459833 -0.2425943 0.1273972
-0.82901067 0.042724438 0.1685608 0.93718463 -0.35596147 0.014930141 1.1714461 -0.5077511
0.25326848 -0.2544905 -0.46846038 0.017642856 -0.47598904 -0.07051396 0.08841497 -0.4909706
0.26339787 -0.015389979 1.0881271 -0.7939291 -0.5285324 -0.11912736 0.7574998 0.06122513
-0.0798587 -0.0065980884 1.0255994 -0.5265339 -1.1515324 0.06231049 -1.1646684 -0.22132078
0.22804189 -0.049506463 0.53148365 0.800291 0.11471877 -0.12033318 0.19595757 -0.25855884
-0.47934297 0.061659947 0.71391296 -0.45513514 -0.83906674 0.023256335 -0.722067 0.27177137
-1.7717403 -1.2601116 0.7067064 0.5371466 -0.342987 -0.4093585 -0.3601427 -0.070094466
0.3012514 0.06466338 -1.1364058 -0.9105792 0.1342391 -0.3611027 0.0074622394 0.7287249
0.5468177 0.11995583 -1.0199226 0.19306046 0.1221281 0.06442003 -0.93315655 -0.81259143
-0.72406626 0.05677261 0.68976796 -0.01745699 -0.6129073 -0.048402473 0.54869115 0.36511725
0.61306256 -0.015016797 0.8866916 0.7449167 0.61127687 -0.49061605 -0.2609291 -0.06809397
-0.42663804 0.22807693 -0.74675256 -0.6488765 -0.15438718 -0.11722046 -0.07483798 -0.18659562
00000000: c858 7bbe 3280 c93d c84a adbf 1946 273e
00000010: c9a1 f2bf a463 b4bf 0064 1b3f 1160 053f
00000020: 4c88 85be 90b5 6ebe a04b 913d e209 edbe
00000030: 00a9 583e 8cf4 59be 9a27 e2be 6c1e cfbe
00000040: 0461 913e 4391 83be 44a4 c2be e2a8 5a3d
00000050: 1d0a 3fbf cd99 503e 5e27 f63d 8cbf 343f
00000060: 4aeb 1a3f 5deb 2dbe adbb 2a3d b958 93be
00000070: 7d6b 0ebf 36e6 373e 06d9 f33d 1b6d 8b3f
00000080: 3543 f43e c5b5 593c 800c 0f3f 8875 89bf
00000090: f8f6 eabd 7c40 94be 6c78 0fbe d0b2 63bd
000000a0: 3913 453e 317c f43d 889e cc3e b756 b63d
000000b0: 3c3c 7cbf 7695 203e 31d2 b03d 83cd d73d
000000c0: c130 7dbf 4150 653e 588b 91bf 5752 903e
000000d0: 159f 813f bb7f 113b 0af7 3bbf df57 90be
000000e0: 1e2a cd3e fb45 14bf fbf4 043f 82da b13e
000000f0: a0c0 493d 85f3 ea3d 1fb2 9cbf d274 4cbf
00000100: aee5 83bf 9dbc 2b3e 3c58 8fbf d394 e4be
00000110: 6658 333f a39e 10bd 9925 cd3d 1f26 89bd
00000120: d7e2 af3e 804a 04bf f6c9 dc3e 7053 be3e
00000130: fd78 293f 3337 283c 1363 023f 998f b43e
00000140: ab9e 803f 6f2b 2e3e 7b43 b93e ec79 62be
00000150: eb80 81bf c91c 943e 400d 313f cc56 833e
00000160: e852 e13e f649 0bbe 1bd2 213e 04e8 0b3f
00000170: d699 c73e 0244 d73d 3fa5 5c3d f255 b5bf
00000180: 22a7 c8bd dbe1 aa3c b2d7 74bf be12 4e3f
00000190: dc13 97be 2c49 f2be 2e8c b6be d8fd babd
000001a0: a09e f4bc 40d1 b8bc b8f2 30be 00c3 6dbb
000001b0: 1488 fc3d e4bd 1bbd 3a2f d6bd 0fc1 0ebf
000001c0: a367 85be 6e37 8e3d ef1d c23e 8b0b a7bf
000001d0: e6b5 8b3e 64ea 58bd b462 903f 90f0 643f
000001e0: 74a6 f1be 002f eabd 4888 6bbe 60ab 2abd
000001f0: 0220 38bf 5299 333e 3f71 693f 5ec4 a4bf
00000200: 1649 35bf 7bd9 433e 24f7 5f3f a27b 48bf
00000210: b08b 653f 34b0 6d3e c907 37bf d9f4 953e
00000220: 2d2b 7cbf c879 903e 4bdd 32bf d923 18bf
00000230: f2ed bdbd c657 ecbe f4af 413f 7bd7 293f
00000240: bcb0 01be 605a a2bc 0879 cdbe 4c5d 843e
00000250: e74f 973e b7e7 2f3e 9b65 60bf 05b8 9e3e
00000260: fc46 4dbd 06f6 f3bc a2c0 773f af15 933d
00000270: 7d8d eb3e c944 47be a46a 78be 6974 023e
00000280: 0b3a 54bf d2ff 2e3d 349b 2c3e 55eb 6f3f
00000290: 9540 b6be 8d9d 743c f2f1 953f fafb 01bf
000002a0: 68ac 813e 944c 82be 0ada efbe c087 903c
000002b0: d6b4 f3be a069 90bd e812 b53d 8060 fbbe
000002c0: 16dc 863e 4026 7cbc c047 8b3f f03e 4bbf
000002d0: e64d 07bf 0cf9 f3bd 82eb 413f 34c7 7a3d
000002e0: f58c a3bd c734 d8bb d746 833f edca 06bf
000002f0: 6a65 93bf 4939 7f3d db13 95bf eaa1 62be
00000300: d083 693e 4ac7 4abd 500f 083f dfdf 4c3f
00000310: adf1 ea3d 3e71 f6bd 1aa9 483e d361 84be
00000320: 716c f5be 248f 7c3d 00c3 363f 7907 e9be
00000330: 14cd 56bf 1284 be3c 62d9 38bf 9e25 8b3e
00000340: 63c8 e2bf 564b a1bf b6ea 343f 7182 093f
00000350: fe9b afbe 7097 d1be a064 b8be b08d 8fbd
00000360: a03d 9a3e 3c6e 843d bf75 91bf b81b 69bf
00000370: fa75 093e 74e2 b8be cd85 f43b b78d 3a3f
00000380: 3ffc 0b3f 67ab f53d d38c 82bf a4b1 453e
00000390: 4c1e fa3d a6ee 833d 59e3 6ebf fe05 50bf
000003a0: 685c 39bf 658a 683d a294 303f f601 8fbc
000003b0: 7ee7 1cbf ac41 46bd 0677 0c3f a6f0 ba3e
000003c0: abf1 1c3f 0309 76bc 38fe 623f dcb2 3e3f
000003d0: a47c 1c3f 0732 fbbe 8098 85be da74 8bbd
000003e0: 4d70 dabe 008d 693e 2d2b 3fbf c51c 26bf
000003f0: ac17 1ebe 4811 f0bd a844 99bd ec12 3fbe

input_layer.bias f4 [64]
-1.1292256 0.8606332 0.24162525 -0.121549785 -0.2280526 -0.7055624 0.2359436 -0.18416987
0.47468957 0.47910988 0.18013303 0.17286357 -0.7799164 0.27724174 0.3593836 -0.8145438
-1.1513156 0.08151076 -0.24486586 -0.046342768 0.7193081 0.506649 0.61307937 0.11252389
-1.2955326 -0.4840892 -0.39519173 -0.007002348 -0.08758192 0.6946894 0.3460847 0.15193772
-0.09962158 -0.49011445 -0.4535316 0.14966823 0.49989927 -1.048453 1.1041491 0.01522689
0.1465352 0.6382346 -0.14484137 -0.17543846 0.91469747 -0.20984489 1.1160115 -1.7977293
0.0970523 -0.039865248 0.106037326 -0.5241416 1.2320412 0.06938845 -0.6579812 0.12948526
-0.9203099 -1.157551 0.09987508 -0.019671664 0.40770254 0.12715061 -0.19197085 0.13425231
00000000: 778a 90bf 7552 5c3f 9c6c 773e 18ef f8bd
00000010: 9f86 69be bd9f 34bf 339b 713e 0797 3cbe
00000020: 830a f33e e44d f53e cb74 383e 2603 313e
00000030: 9aa8 47bf a1f2 8d3e 2101 b83e f185 50bf
00000040: 4f5e 93bf 1def a63d 1ebe 7abe ead1 3dbd
00000050: 9324 383f c0b3 013f c5f2 1c3f ed72 e63d
00000060: 03d4 a5bf 8ada f7be 9256 cabe f473 e5bb
00000070: 265e b3bd 2ad7 313f 0432 b13e 9095 1b3e
00000080: 6606 ccbd 48f0 fabe 4b35 e8be a142 193e
00000090: ccf2 ff3e b533 86bf c254 8d3f 357a 793c
000000a0: 530d 163e 5863 233f 4c51 14be 24a6 33be
000000b0: 9d29 6a3f 94e1 56be 77d9 8e3f fe1b e6bf
000000c0: 5bc3 c63d be49 23bd 192a d93d 252e 06bf
000000d0: 87b3 9d3f 881b 8e3d 7571 28bf c997 043e
000000e0: 6e99 6bbf a22a 94bf 4e8b cc3d 7826 a1bc
000000f0: 63be d03e c533 023e 0294 44be 7079 093e

hidden_layers.0.linear1.weight f4 [64, 64]
-0.043282285 0.10932635 0.11750537 -0.101959914 -0.025929429 0.10130217 0.06934569 0.029345859
-0.06748965 -0.052013367 -0.024857787 -0.0957862 -0.0020067964 0.054195825 0.08794675 0.053355865
-0.05337181 -0.12128356 -0.019729516 -0.124131985 0.08361698 0.015107039 0.066878386 -0.13443126
0.06649393 -0.11154446 0.006005749 0.0019796013 0.044867404 -0.11339029 0.038041502 -0.07227935
-0.097527705 0.07420992 -0.030690715 -0.06909487 -0.011292279 -0.1030824 0.0009359625 0.07501532
-0.041111078 0.056226842 0.09389144 0.0751695 -0.06462103 0.06875092 -0.018189358 -0.043839045
-0.12466457 0.013758983 -0.12420415 -0.09300064 -0.008306637 0.057738557 0.050431125 0.093080096
-0.017628444 -0.05118238 0.024889302 -0.032967377 0.066753924 0.01038137 -0.057430416 -0.0061479956
0.2647857 -0.043618444 -0.019021302 0.09142105 0.6208668 -0.12297117 0.32178476 -0.09147254
0.078450575 0.05328867 -0.101953685 0.01007367 0.03498655 0.97131264 0.6660836 0.14574577
0.16778904 -0.06228471 0.6215343 0.030675406 0.08459224 -0.016836723 0.56394327 0.10723092
0.1933922 0.061621666 0.092299655 0.07631492 0.036799494 -0.4619244 -0.082660064 0.02707425
-0.110806234 0.06690814 0.054087255 0.28275734 -0.118986696 0.11098268 -0.1484209 0.3758439
0.019717574 -1.1383564 -0.104386464 -0.10424608 -0.5653484 -0.73619723 -0.4475536 0.08626488
-0.37759793 0.1373084 -0.01718354 0.07125129 0.1689549 -0.014313847 0.21478167 0.65103704
0.19664823 0.35575488 -0.12840116 -0.034317475 -0.21226056 1.0409377 0.2227834 -0.10708736
-0.21558392 -0.367157 -0.044179037 -0.09713784 -0.14638285 -0.12295321 -0.5137735 -0.017260354
-0.046978436 0.010941893 -0.0084389625 -0.015012527 -0.019808002 -0.8469456 -0.70880026 -0.047703873
0.049238894 -0.24177787 -0.67535067 -0.06573291 -0.19732447 -0.059203073 0.055550527 -0.18514404
-0.02750519 -0.03736669 -0.08493978 -0.15513757 0.012855179 0.083029956 -0.11738317 0.061685566
0.06329287 -0.14009893 0.058650926 -0.744751 -0.015052974 -0.05962452 -0.0053806407 -0.2138297
-0.003294979 0.781917 -0.06664862 -0.08222869 0.35986465 0.5863371 0.20965223 -0.123408265
-0.04662704 0.037280492 0.03254553 0.032270156 -0.5343349 0.07464434 -0.20975052 -0.77215344
-0.15770245 -0.33707622 0.093240775 -0.041683324 -0.1895999 -0.1109257 -0.17986432 0.006807819
0.035114516 0.1684184 -0.11941831 -0.079795495 0.24863721 -0.39344794 0.7998598 -0.14602949
0.03792398 -0.04616049 -0.02243503 -0.38816684 -0.584894 0.08979426 0.3954735 -0.39361516
-0.5738634 0.1631914 0.41003013 0.09201336 0.053498488 -0.8018126 0.329899 -0.094423205
-0.43558016 -0.0035365522 -0.09846453 -0.151021 -0.27987063 0.14265661 -0.033679307 -0.3082161
-0.7218388 -0.107898176 -0.35230216 0.48467615 -0.035713464 -0.4050264 0.05268295 0.6739257
-0.38047683 0.17834045 -0.0487514 -0.032104596 0.10349562 0.09240183 0.26850933 -0.57288325
0.13364004 0.033590984 -0.3236049 -0.42655227 0.33031783 0.111117706 -0.38879892 0.18579713
-0.27977526 -1.5208962 0.00869319 0.18011883 0.07588059 0.10606943 -0.012728075 -0.039551213
00000000: c448 31bd 7ee6 df3d a8a6 f03d 5cd0 d0bd
00000010: f469 d4bc 8377 cf3d 1d05 8e3d ba66 f03c
00000020: 0338 8abd f80b 55bd 8fa2 cbbc 8e2b c4bd
00000030: 7584 03bb 71fc 5d3d 6d1d b43d ae8b 5a3d
00000040: 669c 5abd 8463 f8bd cb9f a1bc e938 febd
00000050: 613f ab3d 8483 773c 89f7 883d 59a8 09be
00000060: f82d 883d 6c71 e4bd e0cb c43b 33bc 013b
00000070: e2c6 373d 2b39 e8bd 68d1 1b3d 3207 94bd
00000080: 9bbc c7bd 5ffb 973d 186b fbbc 9c81 8dbd
00000090: 4003 39bc de1c d3bd 615b 753a a2a1 993d
000000a0: 1764 28bd 1e4e 663d 284a c03d 78f2 993d
000000b0: 0858 84bd 48cd 8c3d d901 95bc 9290 33bd
000000c0: 2350 ffbd 5c6d 613c bf5e febd 1f77 bebd
000000d0: 9018 08bc 447f 6c3d de90 4e3d c7a0 be3d
000000e0: 8769 90bc 9ea4 51bd a6e4 cb3c cd08 07bd
000000f0: 48b6 883d 9f16 2a3c 283c 6bbd 2075 c9bb
00000100: fe91 873e 41a9 32bd 90d2 9bbc f63a bb3d
00000110: 20f1 1e3f 4fd8 fbbd f9c0 a43e f455 bbbd
00000120: b2aa a03d 3845 5a3d 18cd d0bd 090c 253c
00000130: 0f4e 0f3d f2a7 783f 7484 2a3f 613e 153e
00000140: e4d0 2b3e 411e 7fbd df1c 1f3f fd4a fb3c
00000150: b23e ad3d 2bed 89bc 965e 103f e29b db3d
00000160: 9b08 463e 0067 7c3d 9a07 bd3d ff4a 9c3d
00000170: 11bb 163d 5b81 ecbe ae49 a9bd d1ca dd3c
00000180: 61ee e2bd 2307 893d 998a 5d3d 92c5 903e
00000190: 4caf f3bd e34a e33d a6fb 17be 9d6e c03e
000001a0: c086 a13c aab5 91bf 92c8 d5bd f87e d5bd
000001b0: acba 10bf 6c77 3cbf bf25 e5be a4ab b03d
000001c0: 8454 c1be 939a 0c3e 7fc4 8cbc 32ec 913d
000001d0: 8302 2d3e a084 6abc baef 5b3e 5daa 263f
000001e0: 275e 493e 8125 b63e 987b 03be 7b90 0cbd
000001f0: d55a 59be 723d 853f 5521 643e 9e50 dbbd
00000200: 08c2 5cbe 01fc bbbe 14f5 34bd 34f0 c6bd
00000210: 63e5 15be e4ce fbbd a986 03bf 9665 8dbc
00000220: 766c 40bd a045 333c 9343 0abc 1af7 75bc
00000230: 6444 a2bc 6dd1 58bf ef73 35bf 2365 43bd
00000240: b9ae 493d 9e94 77be c8e3 2cbf fa9e 86bd
00000250: 6d0f 4abe ec7e 72bd f388 633d 6696 3dbe
00000260: 9052 e1bc d00d 19bd e8f4 adbd 62dc 1ebe
00000270: 879e 523c 9c0b aa3d 9666 f0bd 01aa 7c3d
00000280: b19f 813d 1876 0fbe f43b 703d 00a8 3ebf
00000290: c0a0 76bc d738 74bd 1650 b0bb 2cf6 5abe
000002a0: 93f0 57bb b62b 483f 127f 88bd 8467 a8bd
000002b0: 2e40 b83e 301a 163f 13af 563e 79bd fcbd
000002c0: fffb 3ebd 6eb3 183d 764e 053d b62d 043d
000002d0: 2cca 08bf 22df 983d d7c8 56be d9ab 45bf
000002e0: c07c 21be 4195 acbe 05f5 be3d 22bc 2abd
000002f0: 7a26 42be 032d e3bd 5a2e 38be 2014 df3b
00000300: 3dd4 0f3d e075 2c3e 9691 f4bd d26b a3bd
00000310: c19a 7e3e 0272 c9be 9dc3 4c3f c188 15be
00000320: 2d56 1b3d c812 3dbd abc9 b7bc cebd c6be
00000330: 9dbb 15bf 0ee6 b73d 817b ca3e ed87 c9be
00000340: b6e8 12bf a51b 273e 78ef d13e 8071 bc3d
00000350: 3b21 5b3d 9743 4dbf 86e8 a83e f460 c1bd
00000360: 5d04 dfbe 80c5 67bb c6a7 c9bd 40a5 1abe
00000370: 344b 8fbe 9314 123e 50f3 09bd 80ce 9dbe
00000380: 6dca 38bf b8f9 dcbd f360 b4be 7927 f83e
00000390: 4848 12bd 9f5f cfbe 14ca 573d 6586 2c3f
000003a0: dccd c2be e19e 363e 8caf 47bd 1c80 03bd
000003b0: 83f5 d33d 2c3d bd3d 0e7a 893e 7aa8 12bf
000003c0: efd8 083e b396 093d 8baf a5be 0f65 dabe
000003d0: 6b1f a93e ae91 e33d a710 c7be 9a41 3e3e
000003e0: b43e 8fbe baac c2bf e26d 0e3c 1271 383e
000003f0: 4867 9b3d ee3a d93d 6a89 50bc 7400 22bd

hidden_layers.0.linear1.bias f4 [64]
-0.11706328 -0.87628824 0.13399844 -0.017163493 -0.115250506 -0.062304676 -0.49098492 0.10200456
-0.1177152 -0.29514855 -0.09050663 0.013226431 0.053387612 0.0988025 0.07087554 0.08410716
0.15785086 0.23412582 0.2113153 -0.011459827 0.12185806 -0.0432696 0.19657679 0.06084136
0.3437416 -0.01963183 0.057203967 -0.10312312 -0.06892866 -0.10551852 0.7745827 0.19885267
-0.13627751 -0.075644 -0.0618331 0.03574052 -0.90261585 0.53742385 0.10869874 0.05544046
0.049054544 -0.039131057 0.43750605 0.27393752 -0.11725468 0.07399016 0.35650635 0.68151015
0.09763053 -0.025361596 -0.5959189 -0.040827423 0.02567104 -0.090348326 0.07424131 0.079334825
0.32696587 0.6283891 0.011411373 -0.14802033 0.12230233 0.13522811 0.026817843 -0.0168133
00000000: dfbe efbd 6d54 60bf e336 093e 749a 8cbc
00000010: 7508 ecbd 3033 7fbd 6062 fbbe c4e7 d03d
00000020: ab14 f1bd b61d 97be 8a5b b9bd acb3 583c
00000030: f8ac 5a3d f758 ca3d 3227 913d 6040 ac3d
00000040: a8a3 213e aebe 6f3e 0a63 583e 00c2 3bbc
00000050: b890 f93d 773b 31bd 6d4b 493e ca34 793d
00000060: e6fe af3e eed2 a0bc b54e 6a3d 3732 d3bd
00000070: 782a 8dbd 181a d8bd 0d4b 463f 09a0 4b3e
00000080: 558c 0bbe 3eeb 9abd b444 7dbd a764 123d
00000090: d511 67bf 9c94 093f 729d de3d 8915 633d
000000a0: 6bed 483d e347 20bd cb00 e03e 8a41 8c3e
000000b0: 3923 f0bd 2788 973d 0088 b63e 7377 2e3f
000000c0: 84f2 c73d 1fc3 cfbc 248e 18bf a83a 27bd
000000d0: 134c d23c 8b08 b9bd d40b 983d 4c7a a23d
000000e0: 1268 a73e 1cde 203f c4f6 3a3c a492 17be
000000f0: a579 fa3d 3d79 0a3e 18b1 db3c 0cbc 89bc

hidden_layers.0.linear2.weight f4 [64, 64]
0.12492423 0.027175568 -0.08394553 0.029795706 -0.053157017 -0.08737472 -0.0869686 -0.09668297
0.05934553 0.104359455 0.08289887 -0.071777165 -0.019558465 0.022620827 -0.04564965 -0.07806936
-0.085548714 -0.12476802 0.05311781 -0.034891233 -0.03240776 0.055010095 -0.06536602 -0.0887399
-0.10590547 0.08297284 -0.09132388 -0.0703512 0.049401432 0.058351353 -0.28158426 -0.0032277098
0.053150114 0.04972783 0.08128692 -0.009128839 -0.062649 -0.1364141 -0.044163823 -0.08316477
0.0017373562 -0.06853514 -0.0026490327 -0.0059739323 -0.023565784 -0.10516783 -0.13554697 -0.3329888
0.052022647 -0.02917347 0.00060926384 -0.123359054 0.009254774 -0.03926495 0.031308606 -0.0341281
0.1210109 -0.23868603 -0.090989485 0.0821538 -0.06512204 0.032412954 -0.096431255 -0.032978237
-0.08891648 -0.12511076 -0.057143968 -0.48769706 0.040815905 -0.11578524 -0.5832101 -0.11309326
0.025347758 -0.38987538 -0.046760418 -0.039579634 0.04411595 -0.0030859285 0.008618745 -0.057257954
0.03864357 -0.21443221 0.0302637 0.101011544 -0.043117136 -0.122820266 -0.082374796 0.105021864
-0.30737564 -0.03437052 -0.04805814 -0.025478726 0.10285701 -0.05373353 0.023677632 -0.013699906
-0.9707942 0.05430182 0.039116547 -0.08223369 -0.3862677 0.2532003 0.1237324 -0.096014366
0.043183528 0.10458809 0.011462825 -0.17658772 0.008838779 -0.11198313 -0.12782587 0.18255655
0.01906508 0.03628276 -0.009281545 0.06777008 0.08032457 0.13817388 -0.019142201 0.11762962
0.11576003 -0.17171177 -0.13687818 0.12043543 -0.8570985 -0.75583184 -0.02345772 -0.0042022495
-0.051553376 0.027583748 -0.14417164 -0.6595794 0.024861936 0.036343887 -0.22924596 0.006966546
0.10300194 -0.5924692 0.043996785 0.09557267 -0.005370462 -0.043998037 0.10861614 -0.088334225
-0.121137045 -0.17711234 0.08647152 0.065074325 -0.08450839 -0.09251256 -0.01594046 0.018227996
0.25735983 0.07334657 -0.0022124602 0.03608534 -0.09188649 -0.055281702 -0.059572592 -1.2369686
-0.32582444 0.07747454 -0.014579207 0.043832038 -0.02045026 0.05777483 -0.10070643 -0.008716688
-0.032984316 0.032592572 0.056206062 -0.20740518 0.012160916 -0.0149801215 -0.022127202 0.16730565
-0.04775445 -0.0734464 0.14338543 -0.08356361 -0.029708916 -0.035189543 -0.012889524 0.054000244
0.031864975 -0.3229783 -0.017921695 -0.047116328 -0.6583881 -1.1419985 -0.041573018 -0.07945521
-0.11715949 -0.11330498 -0.10243542 0.2154276 0.015310637 -0.07559113 -0.13422471 0.07070102
0.039559063 0.03937612 -0.021674534 -0.06160188 0.07528676 -0.12004846 -0.06301143 0.086986
-0.11824545 -0.07251193 0.045426685 0.0744205 0.10422602 0.019157931 -0.04650062 0.1255232
-0.29035512 0.00011259533 -0.032609034 0.1050657 0.10544006 0.062218346 -0.12906681 -0.079284884
0.21157451 0.08348369 0.052082777 -0.11315578 0.02520649 -0.12224271 0.023983926 0.09852423
0.0531959 0.11433621 -0.21909377 -0.15350796 -0.08502625 0.04788349 -0.030377198 -0.05697204
0.056639824 0.08112592 -0.2682878 0.03213927 0.15201385 -0.0887994 0.049007908 0.023538977
0.036659416 -0.17248212 -0.08120304 0.060670603 0.034265272 -0.039929792 0.11565189 -0.009596646
00000000: 46d8 ff3d 4c9f de3c a2eb abbd 2016 f43c
00000010: 2cbb 59bd 84f1 b2bd 981c b2bd b901 c6bd
00000020: 4c14 733d 69ba d53d e2c6 a93d e8ff 92bd
00000030: 1339 a0bc 504f b93c 21fb 3abd d4e2 9fbd
00000040: 2a34 afbd 6086 ffbd 1092 593d 1cea 0ebd
00000050: 00be 04bd 4452 613d 9fde 85bd 44bd b5bd
00000060: f8e4 d8bd aaed a93d 0408 bbbd 4a14 90bd
00000070: 2859 4a3d d401 6f3d d02b 90be fc87 53bb
00000080: efb3 593d 69af 4b3d c279 a63d 2091 15bc
00000090: 1e4e 80bd 23b0 0bbe 20e5 34bd 4a52 aabd
000000a0: 00b8 e33a 275c 8cbd 659b 2dbb fac0 c3bb
000000b0: 080d c1bc 3b62 d7bd d3cc 0abe 827d aabe
000000c0: b315 553d 33fd eebc 01b7 1f3a aca3 fcbd
000000d0: 56a1 173c 49d4 20bd 743d 003d e8c9 0bbd
000000e0: 90d4 f73d 1c6a 74be b258 babd 4040 a83d
000000f0: b45e 85bd 72c3 043d c07d c5bd 3014 07bd
00000100: d819 b6bd 091d 00be cb0f 6abd 6eb3 f9be
00000110: 942e 273d d020 edbd 424d 15bf 709d e7bd
00000120: 1aa6 cf3c bf9d c7be da87 3fbd 411e 22bd
00000130: edb2 343d 4a3d 4abb a335 0d3c 5187 6abd
00000140: b848 1e3d 1e94 5bbe 94eb f73c 24df ce3d
00000150: 989b 30bd 3189 fbbd 1eb4 a8bd b415 d73d
00000160: 5760 9dbe 1ac8 0cbd 9dd8 44bd c3b8 d0bc
00000170: b2a6 d23d b117 5cbd 98f7 c13c 9275 60bc
00000180: f885 78bf 966b 5e3d ac38 203d 236a a8bd
00000190: e1c4 c5be 78a3 813e 6a67 fd3d 2ea3 c4bd
000001a0: 36e1 303d 4832 d63d 93ce 3b3c 69d3 34be
000001b0: 87d0 103c 6957 e5bd c9e4 02be 1bf0 3a3e
000001c0: 5f2e 9c3c 3b9d 143d 9f11 18bc 0acb 8a3d
000001d0: 3581 a43d 747d 0d3e 1bd0 9cbc cce7 f03d
000001e0: 9813 ed3d 36d5 2fbe cb29 0cbe daa6 f63d
000001f0: cf6a 5bbf 327e 41bf 682a c0bc 06b3 89bb
00000200: a229 53bd 50f7 e13c bba1 13be 32da 28bf
00000210: 42ab cb3c 54dd 143d 74bf 6abe a047 e43b
00000220: aef2 d23d 10ac 17bf f935 343d 9bbb c33d
00000230: b3fa afbb 4937 34bd 2472 de3d 93e8 b4bd
00000240: b316 f8bd f05c 35be fb17 b13d b045 853d
00000250: bc12 adbd 3a77 bdbd 9195 82bc e152 953c
00000260: abc4 833e ba36 963d ecfe 10bb 39ce 133d
00000270: fc2e bcbd 116f 62bd 6402 74bd fd54 9ebf
00000280: 76d2 a6be f9aa 9e3d a0dd 6ebc 3989 333d
00000290: 4e87 a7bc 4da5 6c3d 2c3f cebd 70d0 0ebc
000002a0: 901a 07bd ca7f 053d 5438 663d 0662 54be
000002b0: 943e 473c 2f6f 75bc 1b44 b5bc 2c52 2b3e
000002c0: 2c9a 43bd 116b 96bd a1d3 123e 6623 abbd
000002d0: 1d60 f3bc e922 10bd 952e 53bc 5c2f 5d3d
000002e0: d984 023d 695d a5be 85d0 92bc 0dfd 40bd
000002f0: 1f8c 28bf 022d 92bf 7848 2abd 6ab9 a2bd
00000300: 51f1 efbd 710c e8bd a9c9 d1bd 0e99 5c3e
00000310: 77d9 7a3c 86cf 9abd 3472 09be b2cb 903d
00000320: af08 223d db48 213d cb8e b1bc 4152 7cbd
00000330: f22f 9a3d f8db f5bd 230c 81bd b725 b23d
00000340: ac2a f2bd 2281 94bd 5511 3a3d c669 983d
00000350: 7474 d53d 18f1 9c3c 6f77 3ebd 2789 003e
00000360: 6da9 94be 2821 ec38 0d91 05bd b02c d73d
00000370: f5f0 d73d aad8 7e3d 172a 04be 1d60 a2bd
00000380: fda6 583e 7ff9 aa3d c054 553d 38be e7bd
00000390: d77d ce3c 635a fabd f079 c43c 12c7 c93d
000003a0: f2e3 593d 1a29 ea3d 1e5a 60be 3131 1dbe
000003b0: 3e22 aebd 7a21 443d 9ad9 f8bc 845b 69bd
000003c0: 29ff 673d 5925 a63d 055d 89be 78a4 033d
000003d0: 85a9 1b3e 76dc b5bd 84bc 483d d0d4 c03c
000003e0: 2f28 163d 279f 30be c84d a6bd bd81 783d
000003f0: be59 0c3d 6c8d 23bd e6da ec3d 403b 1dbc

hidden_layers.0.linear2.bias f4 [64]
-1.0815312 0.49325404 0.19873495 0.027602814 0.25946143 -0.2753009 -0.3166345 -0.034913965
0.60484767 0.024231985 0.007011345 -0.85937756 -0.73575145 -0.26744828 0.030358044 -0.7261335
-0.5047707 0.6362241 0.18989092 0.15496172 0.5670546 0.29588747 -0.009520585 0.11513509
-0.53229034 0.051298454 0.052846 0.27278984 0.45635486 0.5590403 -0.12235203 0.27927536
0.10130025 -0.053414546 -0.544326 0.03872997 -0.3518167 -0.23225148 0.29320416 0.11983537
-0.0167678 0.8155986 -0.12302542 -0.120765716 0.7589465 -0.38310876 0.5925103 -0.6236272
0.35178757 -0.046988923 0.44453505 -0.5200398 0.049133305 0.11023894 -0.4190644 0.63189214
-0.5505025 -0.13004309 -0.10626445 -0.19872338 0.5495341 -0.07001715 -0.3121923 -0.1335664
00000000: 9d6f 8abf cb8b fc3e 2d81 4b3e 4c1f e23c
00000010: 21d8 843e 3df4 8cbe eb1d a2be f201 0fbd
00000020: 4cd7 1a3f 2882 c63c 6dbf e53b 2b00 5cbf
00000030: 355a 3cbf fbee 88be 6fb1 f83c e3e3 39bf
00000040: a738 01bf 95df 223f c472 423e 49ae 1e3e
00000050: 7e2a 113f 907e 973e 3afc 1bbc f2cb eb3d
00000060: 2e44 08bf 541e 523d 0c75 583d 1cab 8b3e
00000070: 58a7 e93e 441d 0f3f b393 fabd 2efd 8e3e
00000080: 8176 cf3d 36c9 5abd f358 0bbf 51a3 1e3d
00000090: 5221 b4be 55d3 6dbe db1e 963e 3f6c f53d
000000a0: a05c 89bc 12cb 503f c0f4 fbbd 0454 f7bd
000000b0: 514a 423f d526 c4be c1ae 173f 08a6 1fbf
000000c0: 801d b43e 7577 40bd 199a e33e 5421 05bf
000000d0: 0140 493d f4c4 e13d 9c8f d6be afc3 213f
000000e0: bbed 0cbf 042a 05be 2da1 d9bd 247e 4bbe
000000f0: 44ae 0c3f 2765 8fbd abd7 9fbe a1c5 08be

hidden_layers.1.linear1.weight f4 [64, 64]
-0.43753853 -0.080854185 -0.21286476 0.011029254 -0.3167811 0.029044766 0.12363459 -0.19152406
-0.06332822 0.047938064 0.02105068 -0.02230439 -0.20634818 -0.07428561 -0.11306312 -0.11668038
-0.23621108 0.11395439 -0.043734353 0.022632455 -0.14675489 0.018794926 -0.50865036 -0.038326107
-0.05383814 -0.031045634 -0.035154864 -0.082970284 -0.11473212 -0.01343352 -0.10676951 0.0022050047
0.03724669 0.0054608434 0.03663993 0.054877874 0.068907015 -0.074875884 -0.07752636 -0.16227135
-0.0413772 0.10959589 0.04594411 -0.08456347 0.06410488 -0.10598635 0.07328758 -0.019433739
-0.082088806 -0.1439071 -0.0020344306 -0.18371086 -0.12530078 0.008320267 -0.01980056 -0.08177512
0.022248855 -0.012364528 -0.09845216 -0.13567074 -0.07886857 -0.26621687 -0.23975477 -0.04921578
-0.074070185 -0.2940133 -0.50246495 0.39448 0.22978042 -0.17101684 0.31345826 -0.43497005
-0.24342439 -0.0957807 -0.1864065 -0.061261628 -0.0492821 -0.021541715 0.2931149 0.04241184
0.027777279 -0.19575797 0.42955378 -0.3966552 -0.084547654 -0.11354221 0.16158152 -0.26452327
0.2102365 -0.077542074 0.20610347 -0.23125198 -0.124732584 -0.15162504 0.020244151 0.08996762
-0.32497326 -0.24995594 -0.11025706 0.02349162 0.092409685 -0.30859318 -0.5368285 -0.24939984
0.013817981 -0.60217977 -0.09084065 0.0815275 -0.031836875 -0.0058120224 -0.38291484 0.038753092
-0.07476221 -0.08278986 -0.2716336 -0.2004413 0.120407745 -0.0056307917 -0.2157434 -0.06688142
-0.48922235 -0.013739233 0.032716926 -0.066709995 -0.27516222 0.5385658 -0.10279089 -0.07261056
0.034618087 0.032173183 -0.029663105 -0.1005749 -0.10377103 0.035877544 0.11133632 0.0016998141
-0.09407295 0.0151860565 0.013558237 0.04750208 -0.16134454 -0.042183362 0.03636232 0.09009019
-0.05470205 -0.10024148 -0.060600907 0.0055636596 -0.10471487 -0.03177608 -0.0069719185 -0.13793637
-0.01172024 -0.09976041 -0.034708183 -0.033484925 -0.05684027 -0.010083024 0.08789935 -0.09250755
-0.0667069 -0.018360052 -0.013786246 -0.11277926 -0.06473479 -0.10907961 0.079640575 0.09245225
-0.14184324 -0.16159633 0.09059936 0.011586078 -0.12452381 -0.110612586 0.01565208 -0.12500104
-0.04747064 0.070405275 -0.11221533 -0.1363771 0.012584741 0.06951663 -0.08009976 -0.12691602
-0.124409735 0.036140837 0.06408807 0.024741529 -0.052025918 -0.08208539 0.051841017 -0.101589784
-0.21574783 -0.1837645 -0.19246364 0.11600819 -0.025050115 -0.19197042 -0.10928706 -0.16704245
-0.07401522 0.0038253814 -0.0073756743 -0.15860741 0.06325359 -0.14378557 -0.2433171 -0.13428837
0.059687402 -0.016358977 0.012334272 -0.13988543 0.049198296 0.00048058882 -0.3178772 -0.1719104
-0.122574404 0.09927343 0.059198104 0.04885759 -0.0033787072 -0.092348605 -0.025967931 -0.043540183
-0.07831866 -0.114168964 -0.11119349 -0.04573826 -8.595017e-05 -0.10720748 -0.056037996 -0.12913264
-0.19062339 -0.022055656 -0.011995181 0.035455737 0.03051839 -0.0024398598 0.06121529 -0.12309111
0.038845506 0.0972363 -0.0730505 -0.15137514 0.039813496 -0.09460726 -0.022797247 -0.04690957
-0.12028037 0.098165 -0.08778268 -0.13285524 0.0033112548 -0.2974561 0.017018232 0.03866397
00000000: 0d05 e0be e196 a5bd 38f9 59be 0bb4 343c
00000010: 2231 a2be 4aef ed3c 2234 fd3d e21e 44be
00000020: 3ab2 81bd b45a 443d 7a72 ac3c b2b7 b6bc
00000030: f04c 53be 0e23 98bd a38d e7bd 20f6 eebd
00000040: 51e1 71be eb60 e93d cb22 33bd b367 b93c
00000050: ea46 16be d1f7 993c e936 02bf d6fb 1cbd
00000060: 6285 5cbd 6a53 febc 8cfe 0fbd 53ec a9bd
00000070: acf8 eabd 4418 5cbc f9a9 dabd d781 103b
00000080: fc8f 183d e0f0 b23b c013 163d 9fc7 603d
00000090: 1f1f 8d3d 8758 99bd 24c6 9ebd 762a 26be
000000a0: 247b 29bd cf73 e03d e42f 3c3d 9d2f adbd
000000b0: 6b49 833d 5f0f d9bd cc17 963d 8133 9fbc
000000c0: 2d1e a8bd 625c 13be 1554 05bb b31e 3cbe
000000d0: d94e 00be bb51 083c c934 a2bc b779 a7bd
000000e0: 3b43 b63c 9794 4abc 49a1 c9bd 45ed 0abe
000000f0: d885 a1bd 944d 88be 4682 75be 7c96 49bd
00000100: 1cb2 97bd e988 96be 8ba1 00bf 48f9 c93e
00000110: 8f4b 6b3e 0a1f 2fbe 9a7d a03e 65b4 debe
00000120: 3e44 79be ac28 c4bd 58e1 3ebe 79ed 7abd
00000130: 07dc 49bd 4078 b0bc 2813 963e 0ab8 2d3d
00000140: 2d8d e33c c774 48be 79ee db3e 6416 cbbe
00000150: 5227 adbd d188 e8bd a075 253e 986f 87be
00000160: 3d48 573e 61ce 9ebd ca0c 533e 52cd 6cbe
00000170: cc73 ffbd 9843 1bbe 10d7 a53c f240 b83d
00000180: e562 a6be 73f4 7fbe 74ce e1bd 7f71 c03c
00000190: 4a41 bd3d edff 9dbe 986d 09bf ac62 7fbe
000001a0: d064 623c 7428 1abf aa0a babd e4f7 a63d
000001b0: 6267 02bd c772 bebb 6a0d c4be 90bb 1e3d
000001c0: ee1c 99bd bb8d a9bd 8f13 8bbe 7c40 4dbe
000001d0: 5698 f63d 8182 b8bb d6eb 5cbe 20f9 88bd
000001e0: 5a7b fabe 851a 61bc 2f02 063d 409f 88bd
000001f0: 10e2 8cbe 73df 093f 0884 d2bd d8b4 94bd
00000200: b2cb 0d3d 07c8 033d 0a00 f3bc 37fa cdbd
00000210: e885 d4bd 55f4 123d 4c04 e43d 4ccc de3a
00000220: 52a9 c0bd f0ce 783c 5e23 5e3c 8b91 423d
00000230: 8137 25be 76c8 2cbd a8f0 143d 3581 b83d
00000240: 420f 60bd 684b cdbd a838 78bd 5c4f b63b
00000250: c074 d6bd a327 02bd b174 e4bb 313f 0dbe
00000260: 4006 40bc 304f ccbd 2b2a 0ebd 7d27 09bd
00000270: 58d1 68bd 4533 25bc 9304 b43d 9974 bdbd
00000280: a19d 88bd d267 96bc b5df 61bc d0f8 e6bd
00000290: ac93 84bd 2165 dfbd 991a a33d 9b57 bd3d
000002a0: 5b3f 11be 8279 25be 288c b93d 89d3 3d3c
000002b0: 5706 ffbd da88 e2bd ca38 803c 4600 00be
000002c0: 9370 42bd a430 903d 27d1 e5bd 70a6 0bbe
000002d0: 3b30 4e3c bc5e 8e3d 580b a4bd 46f6 01be
000002e0: 88ca febd 6a08 143d 9b40 833d bfae ca3c
000002f0: 2119 55bd 631c a8bd 3f57 543d 4e0e d0bd
00000300: 00ed 5cbe c32c 3cbe 3015 45be b495 ed3d
00000310: e635 cdbc e593 44be e5d1 dfbd 2d0d 2bbe
00000320: 4b95 97bd 40b3 7a3b a4af f1bb fb69 22be
00000330: 198b 813d 863c 13be 1e28 79be e482 09be
00000340: c77a 743d 4303 86bc b015 4a3c 203e 0fbe
00000350: 2784 493d 8af7 fb39 cdc0 a2be 4809 30be
00000360: 4a08 fbbd de4f cb3d b679 723d e51e 483d
00000370: 4d6d 5dbb 4421 bdbd b3ba d4bc 3157 32bd
00000380: 8965 a0bd 6bd1 e9bd 6ab9 e3bd 0b58 3bbd
00000390: 2540 b4b8 988f dbbd 1988 65bd 593b 04be
000003a0: c732 43be 10ae b4bc 7087 44bc 093a 113d
000003b0: b401 fa3c 0ee6 1fbb e2bc 7a3d 3117 fcbd
000003c0: 771c 1f3d d323 c73d 809b 95bd 1602 1bbe
000003d0: 7a13 233d 73c1 c1bd 4bc1 babc 4024 40bd
000003e0: 8e55 f6bd bb0a c93d 68c7 b3bd 340b 08be
000003f0: a301 593b 2a4c 98be d269 8b3c 1c5e 1e3d

hidden_layers.1.linear1.bias f4 [64]
0.19077429 -0.18608364 0.04387448 0.13442071 0.068156995 0.16262399 -0.14172441 -0.14622623
-0.0902572 -0.22329126 -0.4184076 -0.17946982 -0.6836346 -0.43805522 -0.5333863 -0.017374398
-0.081910975 -0.15231313 -0.14396483 -0.0995675 -0.07360382 -0.09832336 -0.033478923 0.06631306
-0.08328755 -0.12993678 -0.031305227 -0.088962026 -0.023260789 0.097746655 -0.18954976 0.10429901
0.004966729 -0.13920416 -0.35783342 0.09456153 0.0478646 0.07088489 -0.052058104 -0.008458621
-0.094923094 -0.045252346 -0.25974536 0.10446022 -0.0054100477 -0.079438955 0.061166488 0.084224276
0.063463174 -0.19410677 -0.12781598 0.090669245 -0.117296055 0.0566838 0.36167353 -0.3852595
-0.3435847 0.13598888 0.073782034 0.113858 0.018363656 0.05450829 -0.04967221 -0.16241024
00000000: 565a 433e b68c 3ebe bab5 333d 95a5 093e
00000010: e595 8b3d e786 263e 3420 11be 54bc 15be
00000020: c4d8 b8bd 77a6 64be 8539 d6be f0c6 37be
00000030: ad02 2fbf c648 e0be 018c 08bf c154 8ebc
00000040: f1c0 a7bd f9f7 1bbe 846b 13be 0cea cbbd
00000050: 99bd 96bd c25d c9bd 3221 09bd 24cf 873d
00000060: aa92 aabd 260e 05be e939 00bd b931 b6bd
00000070: 698d bebc 662f c83d 5519 42be b89a d53d
00000080: f1bf a23b 898b 0ebe f135 b7be 7aa9 c13d
00000090: ac0d 443d 192c 913d e13a 55bd 0796 0abc
000000a0: 0a67 c2bd 865a 39bd 58fd 84be 3def d53d
000000b0: c546 b1bb e4b0 a2bd b689 7a3d c77d ac3d
000000c0: fbf8 813d edc3 46be 31e2 02be ccb0 b93d
000000d0: ea38 f0bd 462d 683d 462d b93e bc40 c5be
000000e0: 55ea afbe ab40 0b3e 091b 973d 622e e93d
000000f0: 616f 963c 1644 5f3d 1675 4bbd df4e 26be

hidden_layers.1.linear2.weight f4 [64, 64]
0.012393753 -0.42149255 0.068519406 0.14574103 -0.08347339 -0.27737617 0.033676967 -0.11101788
0.005621532 -0.13683411 -0.09719266 0.04998385 -0.034217257 0.060132135 -0.014001381 0.061432336
-0.07906453 0.06015985 0.012040204 -0.14232725 -0.047888428 -0.05287668 -0.00831308 0.050489508
0.049174592 0.019508729 0.10381317 0.05479841 0.10521382 -0.010134077 -0.116451874 -0.0077190995
0.05564575 -0.2503139 -0.051367063 0.092273936 0.095379144 -0.14847498 0.08048455 0.09492781
0.1286262 0.034113936 -0.04691257 0.049398214 -0.011276933 0.07948302 -0.16492988 -0.001866898
-0.02220553 -0.12271644 0.010046374 0.13835208 0.07170856 0.06724301 0.04589588 0.044107627
-0.1493617 0.011559829 0.022395855 0.26135993 -0.018640663 0.25382304 -0.107620925 0.09508954
0.02972661 0.076940805 -0.116309285 0.13911673 0.006067125 -0.108368464 -0.058903724 -0.08153564
-0.053493522 -0.07237323 0.03297471 0.028861444 -1.0923339 -0.28057203 -0.14757963 -0.10803001
-0.008024946 -0.08253663 0.07695066 -0.09482571 -0.100780904 -0.0730891 0.02583494 -0.002838165
0.15346766 0.09414186 -0.06306285 -0.0041148514 -0.030751321 -0.20343268 -0.11869756 -0.05922009
-0.09070346 -0.088221796 -0.09174903 0.01747385 0.071907304 -0.0075138733 -0.030895583 0.02878606
-0.054787233 0.008838779 -0.051595904 0.03787587 0.12784547 0.039846867 -0.043489918 -0.0289357
0.11118828 0.021157036 -0.013204506 -0.07683848 0.06725658 -0.13410793 -0.006951524 -0.0443468
-0.0007390311 0.101805404 0.0856192 -0.022237642 0.1328605 0.15739875 0.07985581 -0.18062843
0.0063287485 -0.13434038 0.08404966 -0.028797586 -0.107123196 -0.07257907 -0.039092652 -0.06778462
0.08010453 -0.1812509 -0.08458876 -0.082149975 -0.6873028 -0.18333068 -0.31884015 0.03210164
0.08107971 0.034500338 0.111353345 0.055508096 0.04681912 -0.0229555 0.052550413 0.07599763
-0.010612503 -0.0488381 -0.060991768 0.04629753 -0.053328127 -0.36554298 -0.04491578 -0.020489886
-0.01563179 -0.02890304 0.1102772 0.048100352 -0.11235036 0.01502867 0.09457024 -0.0004325983
-0.10687408 -0.030798584 -0.10943427 -0.13058768 0.10683466 -0.11800623 -0.14956342 0.106722966
-0.09055683 0.097515024 -0.037332002 -0.008002965 -0.011344518 -0.15708674 0.16391592 -0.043761063
-0.57513356 0.19887234 -0.08638413 -0.04559642 -0.09202536 -0.08518247 -0.033083912 -0.10329145
-0.01793388 0.058509413 -0.11589716 0.133776 -0.06430496 0.026691472 -0.062441263 -0.09355335
-0.011938771 0.027769303 -0.097999714 0.21329054 0.11135553 0.19621481 0.14845614 -0.097161666
0.08783972 0.03583341 -0.09618684 -0.07037397 0.09038116 -0.059926957 0.113547005 -0.03058064
0.045662973 -0.04287035 -0.13068421 -0.0329781 -0.047873378 -0.41081348 0.030075366 0.060737222
-0.06564798 -0.04963542 0.015150956 -0.0006294473 -0.0966051 0.107101336 -0.059956577 0.0677859
-0.044523075 -0.03384879 0.0213664 -0.0995228 -0.12476691 -0.035005763 0.16684054 -0.05786325
-0.11798948 -0.091409914 0.0020714933 0.012096622 0.09114086 0.03066825 -0.009328359 0.049456548
-0.06796109 -0.34363997 0.08735037 -0.38221702 0.005439765 -0.3193041 0.009056749 -0.18001117
00000000: 2b0f 4b3c dfcd d7be e753 8c3d 233d 153e
00000010: 19f4 aabd 4004 8ebe dcf0 093d 585d e3bd
00000020: d434 b83b 3e1e 0cbe f20c c7bd debb 4c3d
00000030: 6527 0cbd 1d4d 763d 0c66 65bc 79a0 7b3d
00000040: 96ec a1bd 2d6a 763d 4744 453c 3cbe 11be
00000050: a826 44bd 3895 58bd 9633 08bc 16ce 4e3d
00000060: 4c6b 493d c5d0 9f3c 009c d43d 4c74 603d
00000070: 587a d73d 6609 26bc 527e eebd 80f0 fcbb
00000080: ccec 633d 2529 80be 4566 52bd 1efa bc3d
00000090: 2456 c33d d309 18be 15d5 a43d 8369 c23d
000000a0: 96b6 033e 0ebb 0b3d 6527 40bd c855 4a3d
000000b0: e3c2 38bc fec7 a23d 61e3 28be b4b2 f4ba
000000c0: 5fe8 b5bc c252 fbbd 8c99 243c 2bac 0d3e
000000d0: f0db 923d b4b6 893d 51fd 3b3d 33aa 343d
000000e0: 46f2 18be 7065 3d3c 8377 b73c f8d0 853e
000000f0: 4eb4 98bc 18f5 813e 5c68 dcbd 4ebe c23d
00000100: 3885 f33c 2493 9d3d 9033 eebd 9e74 0e3e
00000110: bcce c63b 49f0 ddbd 0845 71bd 28fc a6bd
00000120: 061c 5bbd 6a38 94bd 7d10 073d d66e ec3c
00000130: 99d1 8bbf 23a7 8fbe 1d1f 17be d63e ddbd
00000140: 107b 03bc f708 a9bd 4f98 9d3d fb33 c2bd
00000150: 3866 cebd bdaf 95bd cca3 d33c 8200 3abb
00000160: a026 1d3e 73cd c03d 1827 81bd e0d5 86bb
00000170: 32ea fbbc a850 50be b517 f3bd c490 72bd
00000180: bcc2 b9bd a1ad b4bd eae6 bbbd 5225 8f3c
00000190: 2344 933d f036 f6bb bc18 fdbc bed0 eb3c
000001a0: 9468 60bd 87d0 103c 3a56 53bd ba23 1b3d
000001b0: ece9 023e 7836 233d 7c22 32bd 900a edbc
000001c0: aeb6 e33d 8551 ad3c b657 58bc 7e5d 9dbd
000001d0: d1bd 893d 9753 09be 9cc9 e3bb fda4 35bd
000001e0: 8abb 41ba 5a7f d03d 1e59 af3d b72b b6bc
000001f0: 950c 083e 232d 213e 718b a33d a9f6 38be
00000200: 6461 cf3b 8690 09be 3a22 ac3d eae8 ebbc
00000210: 6863 dbbd 56a4 94bd 9e1f 20bd aad2 8abd
00000220: d80d a43d d699 39be df3c adbd 3f3e a8bd
00000230: 14f3 2fbf 0abb 3bbe 043f a3be 027d 033d
00000240: 1e0d a63d 3a50 0d3d 390d e43d 755c 633d
00000250: 68c5 3f3d 2c0d bcbc 1a3f 573d a5a4 9b3d
00000260: 10e0 2dbc 760a 48bd 81d2 79bd 7ba2 3d3d
00000270: 986e 5abd 7328 bbbe 9cf9 37bd 68da a7bc
00000280: 3d0e 80bc 11c6 ecbc 03d9 e13d e004 453d
00000290: f217 e6bd d03a 763c 0bae c13d 5cce e2b9
000002a0: cce0 dabd 504d fcbc 131f e0bd c7b8 05be
000002b0: 21cc da3d 40ad f1bd 2727 19be 9291 da3d
000002c0: dc75 b9bd f5b5 c73d 71e9 18bd de1e 03bc
000002d0: 5bde 39bc 59db 20be 93d9 273e cd3e 33bd
000002e0: f43b 13bf 31a5 4b3e 2aea b0bd 50c3 3abd
000002f0: cb77 bcbd 2674 aebd ff82 07bd 788a d3bd
00000300: 13ea 92bc 91a7 6f3d 7d5b edbd 93fc 083e
00000310: 52b2 83bd 13a8 da3c 69c2 7fbd e698 bfbd
00000320: d69a 43bc 737c e33c 13b4 c8bd d668 5a3e
00000330: 5e0e e43d 89ec 483e e304 183e b2fc c6bd
00000340: 50e5 b33d 0ec6 123d 9bfd c4bd 3a20 90bd
00000350: c219 b93d f875 75bd 558b e83d 4084 fabc
00000360: 1909 3b3d d298 2fbd 15d2 05be 0b14 07bd
00000370: e016 44bd 2556 d2be 9d60 f63c 98c7 783d
00000380: 7372 86bd 834e 4bbd b73b 783c 7e01 25ba
00000390: e5d8 c5bd f257 db3d 0795 75bd 55d3 8a3d
000003a0: d45d 36bd 07a5 0abd 9708 af3c 9cd2 cbbd
000003b0: cb85 ffbd 3462 0fbd 3fd8 2a3e 0402 6dbd
000003c0: 78a4 f1bd 1f35 bbbd e4c1 073b e930 463c
000003d0: 0fa8 ba3d fb3b fb3c f9d5 18bc f392 4a3d
000003e0: 2f2f 8bbd 94f1 afbe c0e4 b23d f3b1 c3be
000003f0: 0e40 b23b d47b a3be c262 143c d954 38be

hidden_layers.1.linear2.bias f4 [64]
-1.0468175 0.45363632 0.20422997 -0.22653513 -0.40572897 -0.4240952 -0.378011 -0.019080171
0.63378835 0.024574615 -0.045523066 -0.89008796 -0.77075857 -0.25430664 -0.005921275 -0.71464366
-0.5459876 0.6712777 -0.13850847 0.20882492 0.61781085 0.24500255 -0.07543091 0.20477425
-0.55721426 -0.026856747 -0.2687234 0.2377748 0.282137 0.43646196 0.12666598 0.15499768
0.22756246 -0.148074 -0.81543183 -0.14476232 -0.27152547 -0.28038952 0.3177946 -0.0639917
-0.3089189 0.83201605 -0.40265793 0.14654279 0.68069607 0.060625833 0.64326435 -0.86672986
0.33199537 -0.19202933 0.40764573 -0.64232856 -0.07930508 -0.12852792 -0.24494907 0.55972993
-0.6061524 -0.2119343 -0.3350518 0.4836486 0.45853963 -0.6805505 -0.5045876 -0.0010281729
00000000: 1efe 85bf 0543 e83e a921 513e d3f8 67be
00000010: b5bb cfbe 0223 d9be a88a c1be 054e 9cbc
00000020: f43f 223f b450 c93c 6576 3abd cedc 63bf
00000030: 6f50 45bf 7b34 82be 4107 c2bb e3f2 36bf
00000040: d8c5 0bbf dbd8 2b3f 2ad5 0dbe 33d6 553e
00000050: da28 1e3f f3e1 7a3e 857b 9abd 57b0 513e
00000060: 98a5 0ebf ae02 dcbc 1d96 89be 3d7b 733e
00000070: 4374 903e f177 df3e bab4 013e b6b7 1e3e
00000080: 2206 693e b6a0 17be 24c0 50bf 933c 14be
00000090: 6305 8bbe 378f 8fbe f9b5 a23e 150e 83bd
000000a0: 9e2a 9ebe 01ff 543f 2e29 cebe 500f 163e
000000b0: 1942 2e3f cb52 783d f9ac 243f 02e2 5dbf
000000c0: 4cfb a93e 56a3 44be f1b6 d03e a56f 24bf
000000d0: b46a a2bd d39c 03be eed3 7abe 764a 0f3f
000000e0: ce2c 1bbf 4e05 59be e98b abbe caa0 f73e
000000f0: b5c5 ea3e 8f38 2ebf a72c 01bf c2c3 86ba

hidden_layers.2.linear1.weight f4 [64, 64]
-0.19440944 0.080158435 0.039507117 0.010783694 0.11704346 -0.077348456 0.041905034 0.0689929
-0.14950654 0.07898892 -0.058108702 0.021885993 0.01097108 -0.17433327 -0.056694794 0.03670662
-0.19790818 -0.23194037 0.07988933 -0.028167197 -0.17534408 0.065877624 0.03927508 -0.100124
-0.034633424 -0.048817787 0.22817717 -0.14625753 -0.107065715 -0.14500345 -0.049896296 -0.013196166
-0.027856214 -0.02948155 -0.0827337 -0.07112374 -0.14504863 0.012877752 0.0786171 -0.08336043
-0.05549422 0.09864393 0.056420725 0.006244901 -0.057800926 -0.3361191 0.13406448 -0.025324188
-0.18724452 0.33025363 -0.06948155 0.06710919 -0.05155312 -0.064061634 -0.17688084 0.0348332
-0.16697823 0.13516812 0.039040484 0.0584654 -0.07811944 0.023560023 -0.17405273 0.040743016
0.23287128 -0.46132118 -0.25511962 0.38319606 -0.14246075 -0.16823931 0.045566063 0.00051854114
0.30250698 -0.17537205 -1.3986238 -0.045410674 -0.030186621 -0.311027 -0.28194728 -0.7557436
-0.33885166 0.21315308 -0.026534643 -0.034408685 0.11777884 -0.032819074 -0.43337768 -0.983562
-0.0453607 -0.0051429737 -0.03837962 -0.53220636 0.022854842 0.12300348 -0.28571475 -0.33668977
-0.56004834 -0.25293958 -1.0883856 0.20896354 -0.57481736 -0.8210595 -0.2790864 0.19478168
0.09009141 0.09443349 -0.045844503 -0.35076243 -0.21866305 0.28508884 0.14397822 0.1228922
0.14066575 -0.06720515 -0.775272 -0.07950194 0.17118758 -0.092381105 -0.7045304 -0.5305773
-0.36236784 0.13138758 -0.49484438 0.05746682 0.12563391 0.052191656 -1.3666983 0.40643805
0.1618809 -0.2241898 -0.6734798 -0.10558129 0.3970184 -0.24303085 -0.5215142 -0.043521643
-0.3052441 0.13461898 0.5444792 -0.19091755 -0.04963084 0.013222217 0.15925229 -0.067189634
-0.064854614 0.053453986 0.1769523 -0.47149742 -0.08782438 -0.30759645 0.25331423 -0.16052866
0.20065352 0.07343804 0.4309158 -0.001321014 -0.115740664 -0.009078486 -0.08321433 -0.52769727
-0.5745708 -0.18896614 0.11077046 -0.10715677 0.3346808 -0.7779792 -0.7220179 0.13680063
-0.11358633 -0.5926874 0.05622903 0.17052896 -0.075009525 -0.06998459 -0.21595888 0.0448772
-0.4535733 -0.17022263 -0.13390256 -0.22858259 0.0257338 0.070953906 -0.20420521 -0.20295514
-0.83065224 0.08192928 0.025729777 0.0035626406 0.023184232 -0.66163695 -0.33624843 -0.11567466
-0.05335938 -0.30244645 -0.08951321 0.060281657 0.16590716 0.038997784 0.33865175 -0.06599449
-0.32096404 -0.013022538 -0.20352082 -0.20779228 -0.11615095 -0.13317584 0.21193509 -0.08824438
-0.13324343 -0.56658036 0.3139401 -0.16128369 -0.13106959 -0.04732898 0.06296653 -0.03240656
-0.14257212 -0.07900981 0.1881423 -0.23668586 -0.15080287 -0.14083922 -0.095449865 0.14765325
-0.4911767 -0.48712412 -0.009799315 -0.43376604 -0.42329124 -0.36175552 -0.18481073 0.007229667
0.04838925 -0.22462647 -0.024970427 -0.023252135 -0.07490762 -0.09514391 -0.65359867 -0.24536484
-0.01269433 0.34154376 -0.19363512 -0.07675454 -0.2978419 0.07175198 -0.13988988 -0.012137178
-0.1366597 0.029462919 -0.042584047 0.004272841 0.0849495 0.39343917 -0.32135192 -0.029334053
00000000: 4513 47be 1b2a a43d 37d2 213d 17ae 303c
00000010: 7bb4 ef3d de68 9ebd 9da4 2b3d 264c 8d3d
00000020: 3e18 19be f1c4 a13d 6403 6ebd 414a b33c
00000030: 0bc0 333c 6c84 32be cd38 68bd ae59 163d
00000040: 71a8 4abe c781 6dbe 049d a33d e5be e6bc
00000050: 668d 33be d9ea 863d e8de 203d d00d cdbd
00000060: c7db 0dbd 29f5 47bd 47a7 693e 89c4 15be
00000070: 4545 dbbd c97b 14be 0f60 4cbd bb34 58bc
00000080: b732 e4bc 4b83 f1bc 4970 a9bd 53a9 91bd
00000090: a187 14be 35fd 523c 0102 a13d e0b8 aabd
000000a0: e84d 63bd d405 ca3d 6b19 673d 07a2 cc3b
000000b0: aac0 6cbd cd17 acbe 3348 093e ac74 cfbc
000000c0: 07bd 3fbe 0117 a93e 584c 8ebd 8b70 893d
000000d0: 5d29 53bd bf32 83bd 4020 35be 42ad 0e3d
000000e0: 57fc 2abe 8369 0a3e eae8 1f3d 6a79 6f3d
000000f0: 16fd 9fbd f300 c13c e13a 32be 26e2 263d
00000100: cf75 6e3e 4a32 ecbe 0a9f 82be 4632 c43e
00000110: 3be1 11be ed46 2cbe 7ba3 3a3d b5ee 073a
00000120: 32e2 9a3e bb94 33be 1b06 b3bf 8b00 3abd
00000130: ef49 f7bc ee3e 9fbe 655b 90be 6a78 41bf
00000140: f77d adbe cd44 5a3e 2e5f d9bc 1ff0 0cbd
00000150: 0836 f13d 4b6d 06bd aee3 ddbe b8ca 7bbf
00000160: 24cc 39bd 6486 a8bb f333 1dbd ad3e 08bf
00000170: 143a bb3c 40e9 fb3d 3449 92be 9a62 acbe
00000180: 545f 0fbf 4c81 81be 3850 8bbf 8afa 553e
00000190: 3b27 13bf f530 52bf 6ae4 8ebe d974 473e
000001a0: d881 b83d 5866 c13d 72c7 3bbd 2297 b3be
000001b0: 35e9 5fbe 2af7 913e 076f 133e e8ae fb3d
000001c0: af0a 103e dba2 89bd 3a78 46bf ead1 a2bd
000001d0: cc4b 2f3e 4e32 bdbd 1b5c 34bf ead3 07bf
000001e0: 4788 b9be 778a 063e 3e5c fdbe 5462 6b3d
000001f0: 2da6 003e ebc6 553d f8ef aebf a618 d03e
00000200: 1bc4 253e 0392 65be 2c69 2cbf 013b d8bd
00000210: ff45 cb3e 14dd 78be f481 05bf c043 32bd
00000220: f448 9cbe 8fd9 093e fd62 0b3f e47f 43be
00000230: b549 4bbd ffa1 583c 0813 233e b89a 89bd
00000240: 7fd2 84bd 91f2 5a3d fc32 353e 1c68 f1be
00000250: 45dd b3bd 487d 9dbe 67b2 813e a061 24be
00000260: 1e78 4d3e af66 963d ffa0 dc3e e025 adba
00000270: 7109 edbd eebd 14bc 466c aabd 2b17 07bf
00000280: 1217 13bf 5780 41be 9fdb e23d 0275 dbbd
00000290: 485b ab3e a529 47bf 2ad6 38bf 7715 0c3e
000002a0: f39f e8bd 5dba 17bf 6950 663d 259f 2e3e
000002b0: 989e 99bd 1554 8fbd 5324 5dbe 28d1 373d
000002c0: c23a e8be d74e 2ebe c11d 09be 8e11 6abe
000002d0: b1cf d23c 4850 913d 2c1b 51be 79d3 4fbe
000002e0: a0a5 54bf 8aca a73d 41c7 d23c 317b 693b
000002f0: dcec bd3c 0a61 29bf c128 acbe d6e6 ecbd
00000300: 5e8f 5abd 43da 9abe b452 b7bd e6e9 763d
00000310: 91e3 293e 24bc 1f3d c363 ad3e 1f28 87bd
00000320: 6655 a4be 7c5c 55bc c367 50be 80c7 54be
00000330: 8de0 edbd 3f5f 08be 8305 593e 78b9 b4bd
00000340: f770 08be 690b 11bf c2bc a03e 8d27 25be
00000350: 1b37 06be 08dc 41bd 99f4 803d bebc 04bd
00000360: 6dfe 11be e5cf a1bd 60a8 403e c75d 72be
00000370: 116c 1abe 2838 10be 387b c3bd 6a32 173e
00000380: 837b fbbe 5568 f9be 4e8d 20bc 9516 debe
00000390: a1b9 d8be 0538 b9be 063f 3dbe d8e6 ec3b
000003a0: ce33 463d 7b04 66be c88e ccbc 437b bebc
000003b0: 2b69 99bd cfda c2bd 3e52 27bf ec40 7bbe
000003c0: e1fb 4fbc d3de ae3e 4948 46be 7c31 9dbd
000003d0: bc7e 98be b4f2 923d 4b3f 0fbe 04db 46bc
000003e0: 85f0 0bbe 385c f13c 9c6c 2ebd 3003 8c3b
000003f0: 01fa ad3d dc70 c93e 3d88 a4be f84d f0bc

hidden_layers.2.linear1.bias f4 [64]
-0.09191292 0.08630151 -0.12345989 0.046396736 0.0771912 -0.73914444 0.5540076 -0.16000304
0.02136852 0.06675847 0.07096426 0.062630944 -0.30783945 -0.141866 0.11922913 0.032890443
-0.017251229 -0.17916524 -0.35993874 -0.06639416 -0.18054989 -0.019421313 -0.7829002 0.18340504
0.09386261 0.099127114 -0.018965859 0.088031076 0.24831526 -0.415209 -0.046887103 0.16336924
-0.13552164 0.3960285 0.17425592 -0.5328151 -0.12290432 0.09190559 -0.01944164 -0.19406387
-0.2229401 -0.0150481 0.060237024 -0.03738631 0.17999318 -0.047731124 0.3993169 -0.09360783
-0.15822284 -0.41589922 0.0765825 0.10086285 -0.19301139 -0.29602188 -0.056094993 0.99996835
-0.1212531 -0.05258088 0.6317719 -0.15717594 -0.12174883 -0.06612536 -0.06973485 0.28251266
00000000: d73c bcbd d9be b03d 8ad8 fcbd 810a 3e3d
00000010: 6b16 9e3d 9238 3dbf 71d3 0d3f d6d7 23be
00000020: 090d af3c aab8 883d b655 913d a744 803d
00000030: 229d 9dbe 5245 11be 672e f43d 21b8 063d
00000040: 7352 8dbc 1877 37be e449 b8be a9f9 87bd
00000050: 12e2 38be 7219 9fbc 266c 48bf 88ce 3b3e
00000060: 0a3b c03d 2803 cb3d 4a5e 9bbc a349 b43d
00000070: 5b46 7e3e 4696 d4be b10c 40bd 444a 273e
00000080: 2fc6 0abe 3fc4 ca3e 2570 323e 9266 08bf
00000090: 43b5 fbbd ff38 bc3d 1344 9fbc aeb8 46be
000000a0: 694a 64be 4e8c 76bc 19bb 763d 6322 19bd
000000b0: 2250 383e b681 43bd 4473 cc3e 76b5 bfbd
000000c0: 2b05 22be bef0 d4be 49d7 9c3d 2f91 ce3d
000000d0: c7a4 45be 2e90 97be ddc3 65bd edfd 7f3f
000000e0: 8c53 f8bd 0c5f 57bd cebb 213f bbf2 20be
000000f0: 7357 f9bd bc6c 87bd 25d1 8ebd 80a5 903e
