Watch_exercise_measurement/Creative_model/jupyter_VeryDeepRegressionModel_BatchNorm1d_Dropou.pth (torch, 762149 bytes, 231 tensors)

input_layer.weight f4 [64, 4]
000000 8f 49 23 3f 1e f4 b8 bc ef 79 70 be 4d 2c ae 3b
       0.63784117 -0.022577342 -0.23484014 0.0053153397
000010 d0 c3 23 bd 20 4c c1 bc 22 25 80 be da 5c ec be
       -0.039981663 -0.02359587 -0.2502833 -0.4616459
000020 e4 18 67 3d e0 e2 47 3b 0b f3 2c 3f 71 b8 ef be
       0.056420222 0.0030500218 0.67558354 -0.46820405
000030 1f 27 fe 3d 58 09 34 3d 3a d3 bd 3e 21 9e b9 3e
       0.124098055 0.043954223 0.37075216 0.36253455
000040 df 42 ed 3d fd 68 69 3b a9 30 a1 3e 8d 4c 65 be
       0.1158502 0.0035615556 0.31482437 -0.22392483
000050 c0 82 97 bc 80 ab 18 bc 48 2c 94 bd 28 11 31 be
       -0.018494964 -0.009318233 -0.072350085 -0.17291701
000060 d9 a0 4b be 76 eb 5c 3d 07 17 eb be 07 c3 a6 3e
       -0.19885577 0.05393549 -0.45916006 0.3257067
000070 9c 37 18 3f cf c3 f1 bc 37 90 1c be 13 78 fa 3e
       0.59459853 -0.029512314 -0.15289389 0.48919734
000080 30 39 90 3d 88 71 a0 be 76 4d 9e 3e c0 97 c8 be
       0.07042158 -0.31336617 0.30918473 -0.39178276
000090 c5 8b c7 3e 3f b7 07 3d c2 03 87 3e 46 fc 36 bc
       0.38973823 0.03313374 0.26370054 -0.011168545
0000a0 02 00 e8 3c 85 0c 20 3b 77 7b 1c bd 57 29 5b 3e
       0.028320316 0.0024421525 -0.038203683 0.21402489
0000b0 31 be 0f 3f 18 66 cc 3c 48 d7 aa 3e 87 02 82 3e
       0.56149584 0.024951026 0.33367372 0.25392553
0000c0 6a c5 e2 bc b7 15 af be 63 16 93 be cc 78 84 3e
       -0.027682025 -0.34196255 -0.28728017 0.2587341
0000d0 76 a7 92 3e 4a 0b 84 3d b1 81 41 be 08 60 8e bc
       0.28643388 0.06447466 -0.1889713 -0.017379776
0000e0 78 11 d8 be a8 9c bb be b0 71 32 bd 0e 87 99 be
       -0.42200828 -0.36642957 -0.043565452 -0.2998585
0000f0 b0 61 37 be 92 9b dc be 56 54 c7 be 80 71 fb bb
       -0.17908359 -0.4308744 -0.3893153 -0.0076734424
000100 a9 97 4c 3e ce a6 9f 3c 9c e6 5e 3d e6 8f 8a 3e
       0.19979729 0.019488718 0.054419145 0.2706291
000110 71 da 94 bd 71 09 23 3c b6 3f 32 3f 40 68 43 be
       -0.07268227 0.0099509815 0.69628465 -0.19082737
000120 0c 94 d2 3e 06 3f a5 3d a5 2c 5f 3e cc f1 3f 3e
       0.41128576 0.080686614 0.21794374 0.18744582
000130 1e a1 da 3d ab 5f e2 3a c5 ff 22 3d 86 bd 58 3e
       0.10675262 0.0017270943 0.039794702 0.21166047
000140 e0 15 b4 3e d3 9a cb 3d ae 58 61 3e fd 7f 1e 3e
       0.3517294 0.0994164 0.22006485 0.15478511
000150 2f 7a 32 bd de 4b 58 3b 7a 23 42 3f f2 9e 6a be
       -0.043573555 0.0033004205 0.7583538 -0.22912195
000160 61 08 b4 3e 54 8f 62 bd 8f a4 f5 be 51 ff 5d 3d
       0.35162643 -0.05531247 -0.4797711 0.054198567
000170 49 b5 7b be 67 d5 72 bb 5a b7 ab 3d b4 21 a5 bd
       -0.24580874 -0.0037053467 0.08384581 -0.08063069
000180 a0 90 86 3c 80 77 5c bc 40 4e c8 3c 90 e0 db be
       0.016426384 -0.013456225 0.024451375 -0.42944765
000190 b5 88 06 3e 7d c0 ab 3d 91 fd d3 3e 94 40 1b 3e
       0.13138087 0.083863236 0.41404393 0.15161353
0001a0 57 3d a0 be 01 81 81 be ea a7 77 3e d6 cc 63 be
       -0.312968 -0.25293735 0.24185148 -0.22246107
0001b0 bb 81 db 3d 1f b5 2b 3d 5d 89 c5 3e fb fb 06 3f
       0.107181035 0.041920777 0.38581362 0.5272824
0001c0 5b 06 ab 3e 24 d0 13 be 40 eb 00 bf a6 2b f1 bd
       0.33403286 -0.14434868 -0.50358963 -0.117759034
0001d0 2a d2 26 3f e0 af c7 bc 65 6b 46 be 33 04 f1 bb
       0.65164435 -0.024375856 -0.19376905 -0.007355237
0001e0 3c 31 18 3d aa cc ea be d9 9d e0 be f2 e7 d6 3e
       0.03715633 -0.4585927 -0.43870428 0.41973835
0001f0 e4 88 8b 3e 47 02 f9 3a 8f 4d 01 3f 4a 05 e9 be
       0.27252877 0.0018997871 0.5050897 -0.45511848
000200 21 65 44 3e a9 a7 93 3a 9d 3c 9c be fb ad be 3e
       0.19179203 0.0011265177 -0.30514994 0.37242112
000210 63 0a e1 3d f9 7b fd 39 dd f2 1a be 22 42 93 3e
       0.10988309 0.00048348287 -0.15131707 0.28761393
000220 d1 62 ca be c4 c7 e8 bc 3e 9d 92 bd f1 d8 10 3f
       -0.39528516 -0.028415568 -0.07158898 0.56581026
000230 bf d7 a8 3e af 2d 48 3c cb f0 23 be c8 99 e4 3e
       0.329771 0.012217923 -0.16009824 0.44648576
000240 3e 9f ba be da 52 ef be a4 d2 2b be 10 69 43 be
       -0.36449617 -0.46742898 -0.16779572 -0.19083047
000250 fb f5 ac 3e d0 3a a1 3b 1b 1a 28 3b ba 09 4e be
       0.33781418 0.004920341 0.0025650326 -0.20120898
000260 52 a5 82 3e 5c 8c 0a 3d d3 19 5f 3e 3f 76 d6 ba
       0.25516754 0.033825263 0.21787195 -0.0016362144
000270 f0 f4 43 3d 10 5b 81 bd b0 96 8c bd 00 7d ca bc
       0.047841012 -0.06316197 -0.06864679 -0.024717808
000280 9c 53 2f 3e 9f bb 7d 3d 26 b6 8b 3e 01 82 02 bd
       0.17121738 0.061946508 0.27287406 -0.031862263
000290 12 d2 87 3d 3e 7d 4d 3a 5a 95 89 bd fa dd 62 3e
       0.066318646 0.0007838792 -0.0671794 0.2215499
0002a0 b2 24 ef 3e d0 fc db 3d 94 39 a5 bc a3 0b 13 3e
       0.46707684 0.107415795 -0.020169057 0.14359908
0002b0 96 fd e8 3d 19 02 cb be 7d 7c d5 bd 6b 05 ca 3e
       0.11376493 -0.39650038 -0.10424135 0.3945726
0002c0 f1 cb c9 3d 32 ad d1 3a 5b 57 88 be f1 a2 8f 3e
       0.09853352 0.0015997051 -0.26629147 0.28054002
0002d0 5a 48 e2 bd 7f 80 d1 3d 8d f8 be bd c7 03 2d be
       -0.11048956 0.10229587 -0.09324751 -0.16895972
0002e0 f7 22 97 3d d8 87 ba 39 06 3e e4 3e 43 3b 4d be
       0.07379716 0.00035577896 0.4457857 -0.20042138
0002f0 32 a4 33 3e 84 9d 52 3c e2 0f cc 3e fd f3 fa bd
       0.17543104 0.012854937 0.39855868 -0.12253568
000300 de 3f 5a 3d 7d 2d af 3a 3e c9 e7 3d 6d 94 17 3d
       0.053283565 0.0013364997 0.11317681 0.037006784
000310 ae ed 34 3e 39 55 25 3b 5e 0f a9 bd 61 c6 5b 3e
       0.17668793 0.0025227799 -0.08254884 0.21462394
000320 01 f0 cf 3e 9e b3 e2 3b d1 4a e9 3d 9c 78 e9 3e
       0.40612796 0.0069183847 0.11391223 0.4559983
000330 b0 ff fc 3d e4 e7 df 3b 95 1a b6 3e a6 7c 8d be
       0.12353456 0.0068330634 0.35567155 -0.27634162
000340 6a 49 7d 3e bd fa 89 be f3 77 4e 3e 93 a7 b7 be
       0.24735036 -0.2694911 0.20162944 -0.35870036
000350 80 e3 8d 3e 80 52 12 3d ef 63 b7 3e 78 30 3d bd
       0.2771263 0.03572321 0.3581843 -0.0461888
000360 32 f0 56 be 8f ac a9 3d 4e e5 17 3f ba 0a ab be
       -0.20990065 0.08284866 0.59334266 -0.3340662
000370 d1 c5 cb 3e b1 c5 11 bd d3 0e 22 3f f1 f8 b6 3e
       0.3979936 -0.035588924 0.6330387 0.35736802
000380 8e f4 11 3f 07 13 74 3d 9f 0b 2c 3f e9 e5 9f bc
       0.57013786 0.05958846 0.6720523 -0.01951881
000390 83 2f 45 be d5 e5 1f be aa e1 6d be c9 66 5a 3e
       -0.19256406 -0.15615018 -0.23230615 0.21328272
0003a0 7b 3b dc 3e da 2f e2 bc 1b 81 9d be 6c 29 d5 3e
       0.4301413 -0.027610708 -0.30762562 0.41633165
0003b0 a1 21 5d 3e 6d 1c 8b 3c 9e 1e af 3e 96 0d 1e be
       0.2159486 0.016981328 0.34203047 -0.1543487
0003c0 ad 80 0b 3e 63 4d 26 bd a5 fa 88 bc 89 96 94 3e
       0.13623305 -0.040601145 -0.01672108 0.290211
0003d0 82 10 f3 3d f4 eb 03 bf 46 03 a0 3d a6 7f 46 bd
       0.11868383 -0.5153191 0.07813124 -0.04846158
0003e0 8b f2 34 3d 08 dc 3c 3a 52 96 90 3e ee a6 38 bd
       0.04417662 0.0007204418 0.28239685 -0.04508107
0003f0 e4 81 8f 3e ac c2 8b be 4c 09 e0 be c0 66 e2 3c
       0.28028786 -0.2729696 -0.43757093 0.027636886

input_layer.bias f4 [64]
000000 8c 8c 13 be 70 d3 98 3d b3 22 8a 3e 22 7a 1a 3f
       -0.14409083 0.074622035 0.26979598 0.6034261
000010 83 8a a2 3e a2 c3 9d 3e 44 95 43 3e 9a 98 69 3e
       0.317463 0.30813318 0.19099909 0.22812119
000020 80 b7 dc 3b dd 89 47 3f a0 49 08 bf 53 5b e7 3e
       0.006735742 0.7794474 -0.5323734 0.45186862
000030 4f ce 04 3e 0a 0c 69 3f 4e 4d cf be dc 7e eb 3e
       0.12969325 0.91033995 -0.40488666 0.45995224
000040 c2 d0 22 3f 8c 5f cc bb e0 e5 8a 3e 82 d6 95 be
       0.6359979 -0.006236976 0.27128506 -0.2926522
000050 8f 7f ad 3e 3e 49 70 3e ee d4 89 3d ae 8d aa be
       0.33886382 0.2346544 0.06730066 -0.33311218
000060 00 76 b2 ba 57 b2 82 3f ed 3f b6 be 75 ee 68 3f
       -0.0013615489 1.0210675 -0.35595647 0.90988857
000070 d4 19 ce bd fc 99 94 be 8b 7c 0a bf 66 55 ce be
       -0.1006352 -0.2902373 -0.5409629 -0.4029953
000080 4e 0a 29 3f 12 a8 1c 3e fc 0f da 3e d7 ef 2c be
       0.6603135 0.15298489 0.4259032 -0.16888367
000090 28 30 97 bd 4d 87 02 3d 88 bd 32 3f d6 bc c2 be
       -0.07382232 0.031867314 0.6982045 -0.38034695
0000a0 66 f4 8f 3f b7 78 73 3e 5a 6b 56 3f c0 d4 07 bf
       1.124646 0.23776518 0.83757555 -0.53059006
0000b0 90 c8 37 bd 4c 41 e5 3c 17 67 d2 bd bc b7 44 3f
       -0.044869006 0.027985238 -0.10273569 0.76842856
0000c0 6d 77 f1 bd 31 ae 9d bd 54 46 d8 3e 3b c1 37 3f
       -0.11790357 -0.0769924 0.42241156 0.7177922
0000d0 a8 7a 44 bd ee 74 51 3f 85 40 1d 3f 7e 1e 17 3d
       -0.047968537 0.81819046 0.61426574 0.036894314
0000e0 1b 67 45 3e 62 77 78 3d 45 c1 cd 3e af 08 07 3e
       0.19277613 0.060660727 0.40186515 0.13186906
0000f0 08 74 93 bc bf 1b 83 be fe c6 d8 bd 46 41 8b be
       -0.017999664 -0.25607106 -0.1058483 -0.27198237

hidden_layers.0.linear1.weight f4 [64, 64]
000000 15 8f dc bc 60 bd 40 bc 71 d0 75 3d e2 ce 5b 3d
       -0.026923696 -0.0117639005 0.06001324 0.053664096
000010 3d 9f ec 3d 94 65 bb bd 8d dd 88 3d 95 10 b0 3d
       0.1155381 -0.09150234 0.066828825 0.08596913
000020 60 dc 09 3c 4e b2 bb 3b 1f 3c 83 3d a7 70 86 3c
       0.008414358 0.0057280427 0.064079516 0.016411139
000030 98 32 e2 3d 64 ee e1 3d 50 94 c0 bd 40 47 62 bd
       0.11044806 0.110317975 -0.09403288 -0.05524373
000040 c5 5c c2 3d 0d d8 bd bd ed 42 06 3d 75 de a7 bc
       0.09490351 -0.09269724 0.03277867 -0.020491818
000050 f0 47 88 3d 82 03 86 3d aa ea 3b bd 5f db 29 3e
       0.06654346 0.06543638 -0.04587809 0.1658759
000060 8c 05 30 3d ce 0e ba 3b 03 a2 59 3d 18 be ff 3d
       0.04297404 0.0056780344 0.053133022 0.124874294
000070 46 d4 6d bd ca 9c a1 bd 61 25 0e 3e 55 04 b2 bd
       -0.058063768 -0.07891233 0.13881446 -0.086922325
000080 96 66 b2 3d 99 9b 12 bd 8f 28 58 bc 68 a4 d4 bb
       0.08710973 -0.03579292 -0.013193264 -0.0064893253
000090 b8 f6 86 3c ba c6 21 3c d9 a3 83 3c d0 5f 82 bc
       0.016475067 0.00987404 0.01606934 -0.015914828
0000a0 78 90 95 3d 73 dc 2b bd 66 fe 22 3e 22 53 42 38
       0.07302946 -0.041958284 0.15917358 4.6330628e-05
0000b0 2b 99 82 3e 3d bf dc 3d 9d 0e e2 bd f5 96 26 3c
       0.25507483 0.10778663 -0.110379435 0.010167827
0000c0 ae ed 63 bd 2f 46 b0 bc cf 09 05 3d 1b 6b 17 bd
       -0.05564659 -0.021517841 0.032480057 -0.036967378
0000d0 ea e3 b7 3d 4b 49 c4 3d c3 da c9 3d 24 d5 1b be
       0.08979018 0.09584292 0.098561786 -0.15218025
0000e0 ae 1f b0 bd 3f a5 be bd 22 a8 8e 3e c0 d8 29 bd
       -0.085997924 -0.09308862 0.2786265 -0.041466475
0000f0 cd 13 a8 bd 4b 12 1b 3e 5c 6f 74 bb e0 d6 4c bc
       -0.08206902 0.15143697 -0.003729782 -0.012502402
000100 c1 dc 09 3d 0e 63 b7 bd b4 ba 85 be 04 86 f6 bd
       0.033657793 -0.0895444 -0.26119006 -0.1203728
000110 3f d3 7e be 00 61 15 3d dc 63 0d 3d ee 3e 63 3d
       -0.24885271 0.03646946 0.03451906 0.055479936
000120 40 16 fb bb 3b 3b ab bd 4c f1 c7 3d 28 39 f4 bd
       -0.0076625645 -0.08360907 0.097628206 -0.11924964
000130 9c 9a 90 3d 84 6e 8e 3d 68 7f 3b 3d 30 59 5d bc
       0.070607394 0.06954673 0.0457758 -0.0135100335
000140 da 41 64 3d 0d 0c 32 be 5b e4 48 bd 6e c9 ee 3d
       0.055726863 -0.1738741 -0.0490459 0.116595134
000150 a9 0c 38 bd 20 a4 17 be 2a b9 93 3e 69 ad 62 3d
       -0.04493395 -0.14808702 0.28852206 0.055341158
000160 e8 bd 59 bd 17 7f 70 bd 2d 1a 32 bd eb d5 57 be
       -0.053159624 -0.058714952 -0.043481994 -0.21077697
000170 93 e1 3f 3f 89 22 af bd f2 ee f6 bd 9d c5 80 be
       0.74953574 -0.08551509 -0.12057294 -0.25150767
000180 3b c9 cc 3d 00 aa b1 3d bd ba 2c 3e aa e2 c7 3d
       0.09999319 0.08675003 0.1686811 0.097600296
000190 a6 93 c2 3d 9f 32 9d bc 92 8d 34 be 08 8c dc 3c
       0.09500818 -0.019189177 -0.1763213 0.02692224
0001a0 b6 e4 d2 bd e9 84 41 3e dd dc d1 bc 73 12 75 3e
       -0.102975294 0.18898357 -0.025618011 0.23932819
0001b0 2e 0d 5a 3e 62 c4 e3 3d 82 0e 17 be 56 04 20 be
       0.2129409 0.111214414 -0.14751628 -0.15626654
0001c0 82 23 88 bd c7 dd bf 3d 6f 87 80 3c ff bd 29 bd
       -0.066473976 0.093684725 0.01568958 -0.04144096
0001d0 e5 a1 9a 3c 86 19 b7 bd 50 c7 b0 bd 82 4b 3e bd
       0.018876025 -0.08940415 -0.08631766 -0.04645873
0001e0 6c ab 97 bd 00 1e a7 bd 97 86 e5 3d 0b 52 4f be
       -0.07405743 -0.08160019 0.112073116 -0.2024614
0001f0 b2 13 7e bd 68 37 94 3d 93 c9 22 be 84 9b f7 bd
       -0.0620305 0.072371304 -0.15897207 -0.12090209
000200 ea 9a 32 be ac da 61 bd 6a bb 46 be e0 31 1e 3d
       -0.17441908 -0.055140182 -0.1940743 0.038621783
000210 96 11 0e be 72 ab e6 3d 4d 8b 4a 3e 9b fa 51 3e
       -0.13873896 0.11263169 0.19779702 0.20505755
000220 c4 74 2a bd 2f 0f d8 bc 6c 5f 2d bd 66 4a 15 bd
       -0.041615263 -0.026374428 -0.04232733 -0.036447905
000230 e3 bf e0 3d 81 38 ec 3d 28 8a 01 3d 00 0d 5c 3a
       0.109740995 0.11534215 0.031625897 0.0008394271
000240 40 03 93 bd 33 30 bc bd fe 29 c8 3d 72 34 85 3d
       -0.07178354 -0.09188881 0.097736344 0.06504144
000250 5f 11 ab 3d 33 fd 22 be 18 c5 82 bd b0 83 a0 bd
       0.08352923 -0.159169 -0.06385249 -0.078376174
000260 94 c4 be bd e1 ba 11 bd 19 68 2a bd 75 7d df bd
       -0.09314838 -0.035578612 -0.04160318 -0.10912601
000270 31 15 fe bd a7 fb 2c be ec e0 28 bc 4d 18 63 be
       -0.12406386 -0.16892873 -0.010307532 -0.22177239
000280 7e 44 19 bb 62 92 1b be 7e fd dd bd 4d ab af bc
       -0.0023386772 -0.1519256 -0.108393654 -0.021443987
000290 f4 33 f3 bd 5d 19 74 bb 07 e9 bf 3d b4 3f 3a 3d
       -0.11875144 -0.0037246563 0.09370618 0.04547091
0002a0 1d f1 38 bc aa 40 b6 3d 20 64 aa 3d ff 62 96 bd
       -0.011287955 0.088990524 0.083198786 -0.07343101
0002b0 32 ae b9 3d f4 8a bd 3d 9a 4a 47 be 6a 88 43 3c
       0.09066428 0.09255019 -0.19462052 0.011934379
0002c0 53 39 de bb 27 28 a1 bc 22 49 da bc 63 61 b9 3d
       -0.006781736 -0.019672466 -0.0266462 0.09051778
0002d0 fa 9c fe bc 9c 6b 8a 3d 26 74 43 bd 43 06 a0 be
       -0.031080712 0.06758806 -0.04771819 -0.31254777
0002e0 29 e5 7c bb 15 01 2b bd 99 28 9b 3e f2 81 16 3d
       -0.0038588739 -0.04174908 0.3030441 0.03674502
0002f0 ef a2 b1 bd 42 ea 5c 3d 72 d2 10 be 66 f4 ef bd
       -0.08673655 0.053934343 -0.14142779 -0.11716537
000300 eb 77 d6 3c 82 73 e2 bd 55 ca 8b bd 3c 9e 11 be
       0.026180228 -0.110571876 -0.06825701 -0.14220518
000310 2f 99 a8 bd 86 fe 9d bd e0 69 3f be 54 8b 74 3e
       -0.082323425 -0.07714562 -0.18692732 0.23881274
000320 94 ca f4 3d 7e f5 f6 bd db bc b4 3c 70 e3 36 3d
       0.11952701 -0.12058543 0.02206271 0.044650495
000330 80 51 15 3e e7 71 bf ba e2 71 ea bd e0 12 f4 3b
       0.14581871 -0.0014606089 -0.11447503 0.007448539
000340 8b 5e 15 3b cd 54 c0 3c b0 9d a1 bd 3a 61 88 3d
       0.0022791948 0.023477936 -0.07891405 0.066591695
000350 75 a3 04 be 5d d1 11 be 95 53 78 be 68 ec c3 bc
       -0.12952979 -0.14240022 -0.24250634 -0.023916438
000360 96 d8 87 3d 52 7b 97 bc 52 a1 11 3d a9 a5 7e 3c
       0.06633107 -0.01849142 0.035554238 0.015542426
000370 69 8b 57 3e d0 da c8 3c 26 ad 8c 3d 5a d8 24 3e
       0.21049275 0.0245184 0.06868963 0.16098157
000380 97 39 c3 3d 2e 37 0c bc 60 05 87 3d 2b e6 0c be
       0.09532469 -0.008558078 0.06592822 -0.13759677
000390 e8 19 b8 3d 4f 93 fb 3d 12 87 01 be ec 9b 7c 3d
       0.08989316 0.12283956 -0.12649181 0.061672136
0003a0 61 9f 06 bd 00 92 8e bc 40 16 aa bd 21 f9 2b 3e
       -0.03286684 -0.017403603 -0.08305025 0.16794254
0003b0 5c 6c f2 3d 3c 34 18 be 8c e6 1c bd 0a b8 dc bd
       0.11837074 -0.14863676 -0.038305804 -0.1077729
0003c0 93 ab 0b bd 4a f3 f5 3d fa 65 66 bd 71 38 04 be
       -0.034099173 0.12009294 -0.056249596 -0.12912156
0003d0 0e d9 34 bc ea f5 2d bd 01 5d ab bd c2 09 52 3d
       -0.011038078 -0.04247085 -0.083673485 0.051278837
0003e0 ef f8 37 bd 83 f0 36 bd 90 e3 90 3e 9e 04 28 bd
       -0.044915136 -0.044662964 0.28298616 -0.04102003
0003f0 7e 78 d9 bd 98 d2 d7 3d f9 a1 38 bd f8 11 a4 3d
       -0.10618685 0.105382144 -0.045076344 0.0801124

hidden_layers.0.linear1.bias f4 [64]
000000 81 df e9 3d 38 52 70 3d 13 ce 8f 3d 36 33 6e bd
       0.11419583 0.05867216 0.070217274 -0.058154307
000010 af 29 d6 3d 22 a0 c1 bd c5 94 88 3d e2 f7 a8 3c
       0.10457169 -0.09454371 0.066690005 0.020626012
000020 b4 28 b3 3c 42 64 a0 bd 03 58 cc bd a9 4a b0 3b
       0.021869995 -0.07831623 -0.099777244 0.005379994
000030 ff f7 84 bc a9 32 87 bd c5 c9 91 bd f4 8d 51 bd
       -0.016231535 -0.066014595 -0.071185626 -0.051160768
000040 9b 65 f4 bd 0c bb 88 bc b5 d6 b2 3d 91 ad ce bd
       -0.11933442 -0.016690753 0.08732358 -0.10091699
000050 8f e8 c8 bd 86 e4 e9 3d 69 54 ae bd 2c 81 be bc
       -0.09809982 0.114205405 -0.08512194 -0.023254953
000060 62 e4 ee bc 67 aa 18 3d d7 a9 2c bd 4f fa 03 bd
       -0.029161636 0.037271883 -0.04215416 -0.032221135
000070 34 e6 35 3d 89 1a aa bd 20 d8 61 bd 28 9e c1 bd
       0.044408992 -0.083058424 -0.055137753 -0.09453994
000080 92 fe eb bd 10 bf 33 3c 45 ce 85 bd ef 93 a0 3c
       -0.11523165 0.010970846 -0.065334834 0.01960179
000090 be 92 84 bd 94 86 eb 3d cd 08 81 bd 97 75 e6 3d
       -0.06473301 0.11500278 -0.06300507 0.11252897
0000a0 81 bb 9c 3d 0c da db 3d 14 a4 3f bc a1 f6 90 bd
       0.07652951 0.107349485 -0.011696834 -0.07078291
0000b0 f7 a8 f1 bc 23 21 f4 3b e2 cf c4 bd fe fb 58 ba
       -0.029499514 0.0074502393 -0.09609963 -0.0008277296
0000c0 03 cd 7f 3d 57 eb 5c 3d 01 07 e6 bd f4 1f 53 bd
       0.062451374 0.053935375 -0.11231805 -0.051544145
0000d0 24 b3 e7 bd 8b 3c bc bd ca c2 ef 3c a4 c9 f5 3c
       -0.11313465 -0.09191235 0.029267687 0.030003376
0000e0 82 02 ca bd 6f 1b 9a 3d e8 2e 6e bd 90 85 53 bd
       -0.098637596 0.07524764 -0.058150202 -0.051641047
0000f0 14 3c ed bd 50 31 d3 3d 3f dc cf 3d af d0 d9 3d
       -0.115837246 0.1031214 0.101494305 0.10635506

hidden_layers.0.bn1.weight f4 [64]
000000 01 4b 80 3f 37 db 51 3f f5 de 85 3f 70 31 71 3f
       1.0022889 0.8197512 1.0458666 0.9421606
000010 5e f1 52 3f 54 6a 6d 3f e3 e5 80 3f a1 6f 47 3f
       0.8239955 0.9274037 1.0070156 0.7790471
000020 d8 9f 6d 3f 3c 97 90 3f b4 ca 83 3f 4d 23 4e 3f
       0.9282203 1.1296153 1.0296235 0.80522615
000030 ab b4 6d 3f a7 f3 aa 3f 0f 15 41 3f 30 f0 57 3f
       0.928538 1.3355607 0.7542276 0.8435087
000040 26 73 73 3f 9e 29 8e 3f 2a 47 4e 3f 2d b8 75 3f
       0.9509758 1.110645 0.8057734 0.95984155
000050 2d 05 7d 3f 4f 22 6c 3f 66 da 4e 3f 83 cf 4b 3f
       0.9883602 0.9223985 0.80802 0.7961351
000060 76 db 70 3f 5f da 65 3f 10 2a 3c 3f e2 d6 40 3f
       0.9408487 0.8978633 0.7350168 0.75327885
000070 7f 8c 84 3f d8 95 91 3f 5a 00 51 3f 6a 18 7a 3f
       1.0355376 1.1373854 0.8164116 0.976935
000080 d8 51 72 3f af 56 87 3f 9b d2 4c 3f a7 9b ba 3f
       0.94656134 1.0573329 0.8000886 1.4578751
000090 d6 77 5d 3f 28 dd 68 3f c7 23 45 3f 13 30 78 3f
       0.8651098 0.9096246 0.77007717 0.96948355
0000a0 44 8f 85 3f 24 6f 41 3f 93 f1 44 3f c2 6d 3a 3f
       1.0434346 0.7556021 0.76931113 0.7282373
0000b0 a6 11 80 3f 7c f6 37 3f 99 f8 4e 3f 45 4f 8a 3f
       1.0005386 0.7186048 0.8084808 1.0805441
0000c0 92 34 71 3f 46 dd 8d 3f 48 b4 5f 3f 25 03 83 3f
       0.9422084 1.1083152 0.8738446 1.0235335
0000d0 35 4b 73 3f bd 70 50 3f c5 7e 6d 3f 74 c6 6a 3f
       0.9503663 0.81422025 0.9277156 0.91709065
0000e0 7d 79 5f 3f af 5b 86 3f 60 6e 4d 3f d1 69 77 3f
       0.8729475 1.049673 0.80246544 0.9664584
0000f0 c8 76 5d 3f 1c b9 79 3f 47 3e 7b 3f f3 1e 53 3f
       0.8650937 0.9754808 0.981419 0.824691

hidden_layers.0.bn1.bias f4 [64]
000000 51 90 07 be 67 fb 10 be c0 69 89 3e d6 fe c8 bc
       -0.13238646 -0.14158402 0.26838493 -0.024535578
000010 11 a4 38 3d a9 8e 59 be 83 34 f3 bd 2c cf 50 be
       0.04507834 -0.21245827 -0.1187525 -0.2039153
000020 78 1b 54 3c 04 6e 8c bd 56 e3 9d be 07 9e 0d be
       0.012946002 -0.06856921 -0.30837506 -0.13829814
000030 87 eb f1 bd 8a c6 8b 3c 16 82 87 3b 9a 26 a5 3d
       -0.118125014 0.017062444 0.0041353805 0.08064003
000040 90 1b 1b 3e b9 ab 46 be 01 34 29 3e 21 de 46 3c
       0.15147233 -0.19401444 0.16523744 0.012137921
000050 6d 4d 92 3e 0f 76 91 be 5f 77 20 be 22 12 3e bd
       0.28574696 -0.28410384 -0.15670536 -0.04640401
000060 65 96 21 be 18 74 83 be d6 65 c5 bd bc 9c 83 be
       -0.15780027 -0.2567451 -0.09638564 -0.25705516
000070 68 65 e3 bd d0 c7 49 bb 52 0e e9 bc b9 59 be bc
       -0.11103326 -0.0030789264 -0.028449211 -0.023236142
000080 28 b0 06 bd 41 a9 37 3e 05 67 89 bd ad 9a d6 3c
       -0.03288284 0.17935659 -0.067091025 0.026196802
000090 60 6c d2 bd 66 5a 01 3d 28 5c b2 bc bb 12 d7 3c
       -0.10274577 0.03158035 -0.02177246 0.026254049
0000a0 e6 70 e2 bd 46 8f 7d bd 2e d0 71 3d 84 43 50 bc
       -0.1105669 -0.061904214 0.059036426 -0.0127114095
0000b0 3a 46 da bc 48 c0 06 be 4b 39 4c bd ee 33 96 3e
       -0.026644815 -0.13159287 -0.049859326 0.29336494
0000c0 e9 47 f4 bd 29 17 90 3d 55 44 3c bd 00 bd ff bb
       -0.11927778 0.070356674 -0.045963604 -0.007804513
0000d0 34 e7 02 be c7 62 05 bd db 4e db bd fa 8a 84 be
       -0.1278351 -0.032564905 -0.107084 -0.2588728
0000e0 f2 5f 36 bd 60 81 f1 3c 3e fb b5 3d fd 3d c6 bd
       -0.044525094 0.029480636 0.08885811 -0.09679792
0000f0 55 09 fa bd 77 7f 57 3e 13 42 04 bd d6 53 6f be
       -0.12208811 0.21044718 -0.032289576 -0.23371825

hidden_layers.0.bn1.running_mean f4 [64]
000000 7a 22 49 44 fb 93 83 c4 7b 9b 02 43 d3 8d 5a c4
       804.5387 -1052.6244 130.60735 -874.216
000010 75 73 2e 43 c5 13 c8 c4 57 65 99 c3 97 b0 9c 44
       174.451 -1600.6178 -306.79172 1253.5184
000020 1e 9d 1d c4 f2 ee b0 c3 1b f2 a7 c3 5c 1f 93 42
       -630.45496 -353.86676 -335.89145 73.56125
000030 ed a5 70 44 56 7a 84 c4 6b 81 be c4 39 f9 41 44
       962.5926 -1059.823 -1524.0443 775.8941
000040 55 43 0e 44 67 1f b9 c4 74 b1 bc c4 8f 72 a1 43
       569.05206 -1480.9813 -1509.5454 322.895
000050 49 18 b4 c4 b5 94 8c c3 a6 c2 a8 c4 a6 9d 7d c4
       -1440.7589 -281.16177 -1350.0828 -1014.46326
000060 cf c8 92 c4 a1 b8 37 43 19 d3 90 42 a6 7d ad c4
       -1174.2753 183.7212 72.4123 -1387.9265
000070 60 5b 51 c1 d2 44 be c4 4c c9 8b 43 9b 5d 59 c4
       -13.084808 -1522.1506 279.57263 -869.4626
000080 31 7e 44 c4 4c 0e cc c4 e1 37 99 c2 cd 38 9a c4
       -785.97174 -1632.4468 -76.60914 -1233.775
000090 5e 43 86 c3 3a 0a 5f c4 fe 77 bb 44 54 bc 51 c4
       -268.5263 -892.1598 1499.7498 -838.9426
0000a0 ed 3c ac c3 3e 21 4d c4 dd e7 6d 43 cd 27 87 c4
       -344.47598 -820.5194 237.90572 -1081.2438
0000b0 29 57 b9 c2 2b eb d0 c3 cc dd 6d 44 25 23 4c c4
       -92.670235 -417.83725 951.4656 -816.54913
0000c0 d5 9f d4 44 18 eb 9e c4 e4 60 2b c4 d8 59 8f c4
       1700.9948 -1271.3467 -685.5139 -1146.8076
0000d0 0c 51 3d 42 3c 99 fb c4 5a 00 87 44 31 31 1e 44
       47.329147 -2012.7886 1080.011 632.7686
0000e0 ad 1e 32 c4 b1 39 e7 c4 b6 92 ab c4 e2 fc 69 c4
       -712.4793 -1849.8029 -1372.5847 -935.9513
0000f0 a1 a8 09 c4 53 8b 50 44 76 3d 8b c4 50 10 f1 c4
       -550.6348 834.17694 -1113.9207 -1928.5098

hidden_layers.0.bn1.running_var f4 [64]
000000 83 5a a5 47 df 39 41 47 aa c1 42 47 56 30 24 48
       84661.02 49465.87 49857.664 168129.34
000010 4d a5 a3 47 77 33 83 48 45 e4 f2 47 2f 50 51 47
       83786.6 268699.72 124360.54 53584.184
000020 af 4b 2c 48 93 65 6f 47 bc fd 14 47 13 c4 8c 47
       176430.73 61285.574 38141.734 72072.15
000030 21 fe ac 47 97 75 ce 47 7f 44 d1 47 35 bb 49 47
       88572.26 105707.18 107144.99 51643.207
000040 c0 0f bb 46 57 91 18 47 f4 f3 83 47 3f 00 2d 47
       23943.875 39057.34 67559.91 44288.246
000050 09 62 94 47 16 cb c0 45 19 60 1e 48 9e fa 50 48
       75972.07 6169.3857 162176.39 213994.47
000060 19 74 4d 48 33 d0 1f 47 2a 28 4b 46 42 2a 42 48
       210384.39 40912.2 13002.041 198825.03
000070 06 1c 3a 46 ef 8f 8f 47 e0 07 6f 47 9a 9a 53 48
       11911.006 73503.87 61191.875 216682.4
000080 75 92 3a 48 97 2b d2 47 96 d7 3d 47 d1 3f 3f 47
       191049.83 107607.18 48599.586 48959.816
000090 4b 4c 10 47 a0 1c 14 48 bd da bf 47 93 07 2d 48
       36940.293 151666.5 98229.48 177182.3
0000a0 3b 93 10 48 c4 54 d5 46 77 a8 10 48 55 87 40 48
       148044.92 27306.383 148129.86 197149.33
0000b0 db d0 c5 46 2a 4e c2 47 a5 26 88 47 dd 5c 28 47
       25320.428 99484.33 69709.29 43100.863
0000c0 19 16 0b 47 f3 e0 5d 47 e1 de 80 47 03 3b 22 47
       35606.098 56800.95 65981.76 41531.01
0000d0 0e 6c 18 47 89 32 f9 47 bc c1 2d 47 49 9d 73 47
       39020.055 127589.07 44481.734 62365.285
0000e0 90 fc 0b 48 ea 6d 0a 47 86 77 97 47 de 90 2f 48
       143346.25 35437.914 77551.05 179779.47
0000f0 d1 a8 f5 47 66 b5 e8 47 53 bb 2d 47 c6 f3 95 47
       125777.63 119146.8 44475.324 76775.55

hidden_layers.0.linear2.weight f4 [64, 64]
000000 b2 5f 9a bd 7c d8 5b bd 02 8f 99 bd 08 34 ea bd
       -0.07537784 -0.053673252 -0.0749798 -0.114357054
000010 14 e8 e3 3c 41 19 0e 3d ba b7 04 be 4b 9a e4 3c
       0.027820624 0.034692053 -0.12960711 0.027905604
000020 d4 a3 23 be a1 a6 0a 3e fb bd 82 3e c9 1e bc bd
       -0.15980464 0.13540126 0.2553557 -0.09185559
000030 d3 a4 80 bd c8 9b 19 3e 62 59 38 bb a6 86 01 3d
       -0.06281438 0.15000832 -0.0028129448 0.03162255
000040 89 47 31 bd 24 61 74 bd 31 6b 8c 3d e8 0e 89 3d
       -0.043281112 -0.059662953 0.06856383 0.06692296
000050 b5 b5 59 3d 68 d3 01 3d 36 bc 51 bd f2 c4 ea bd
       0.053151805 0.031695753 -0.051204883 -0.114633456
000060 b5 4c 14 bd de 92 f5 3b ec 9b d4 3d 66 ae 2c bd
       -0.036205966 0.0074943146 0.10381302 -0.042158507
000070 a1 c6 94 bd 0d ec bd 3d fe 62 f9 3b 72 07 12 bd
       -0.07264448 0.09273539 0.0076106777 -0.03565163
000080 1c f5 9c bc ff 90 e2 3d 1e 9d f8 3c f7 3e 16 be
       -0.019159846 0.11062812 0.030348357 -0.14672457
000090 02 4c 03 3e 1d 68 63 bd 24 85 27 3b 9b 79 d9 bd
       0.12821963 -0.055519212 0.0025561536 -0.106188975
0000a0 05 63 34 be 9b 5d 9b bd 15 85 96 bc 99 be 86 3d
       -0.17615898 -0.07586213 -0.018374005 0.06579322
0000b0 6f c0 a5 bd 1e ed 09 be 46 d0 f8 bb 2f c0 3f 3e
       -0.080933444 -0.1346936 -0.0075931875 0.18725656
0000c0 43 81 94 3d 01 96 96 3d 45 2d 02 be bf 1e 7f 3d
       0.07251217 0.0735283 -0.12712581 0.06228518
0000d0 44 8d 08 bd 41 8c 9d bd 86 2b 1e bc 78 d7 80 be
       -0.033337846 -0.07692767 -0.0096539315 -0.2516439
0000e0 21 48 04 3e f8 0b cb bd 8b ba d8 3d a2 08 9d bd
       0.1291814 -0.09914392 0.10582455 -0.07667662
0000f0 64 38 ce 3d 5e ac e1 3d 30 75 7f 3d 9b 9c a6 3c
       0.100693494 0.110192046 0.062367618 0.020338347
000100 1f 98 59 3d 5f 4d 97 ba 95 db 18 be 4b 44 c3 bc
       0.05312359 -0.0011543444 -0.14927514 -0.023836276
000110 55 b3 d5 3d c1 5e f8 3c 4f 7a cb bd 0d a1 7c 3d
       0.104345955 0.03031862 -0.09935438 0.061677027
000120 f4 c7 5f bd 83 bd 60 3e 76 b1 4e 3e 78 24 bb 3d
       -0.05463405 0.21947293 0.20184883 0.09137815
000130 d2 4b ac bc 7f 3c 81 3e d5 ad 3a bd c5 b6 d3 bd
       -0.021032248 0.25241467 -0.045575935 -0.10337595
000140 f3 de ef bd 39 65 4e be 37 c9 a1 bb af d1 23 be
       -0.11712446 -0.20155801 -0.0049373168 -0.15997957
000150 e4 e2 4d 3e 55 84 85 bd b0 92 a5 bd ef 3b 8a bd
       0.20106083 -0.06519381 -0.08084619 -0.06749713
000160 09 67 45 3c a2 a1 e8 3d ba 27 80 bd 15 f9 8c 3d
       0.012048491 0.11358954 -0.06257577 0.06883446
000170 06 36 ae 3d 2c b5 08 be 6a d2 22 bd e8 c8 c0 bd
       0.08506398 -0.13350362 -0.039751448 -0.0941332
000180 06 9b 94 bd ec 63 01 3c 6a ec 6c bd cd 90 a1 be
       -0.07256131 0.007897358 -0.05784265 -0.31555787
000190 97 0b 91 bd 9c 1d c4 3c 6c 11 72 3d 26 1c 87 3c
       -0.07082289 0.0239399 0.059098646 0.016492914
0001a0 6d 46 90 bd 18 16 d9 3c af ec 20 3e a1 fc 81 bd
       -0.07044683 0.026499793 0.15715288 -0.06347013
0001b0 cb 71 5c bd 12 b0 a9 3d 74 8e cb 3d 72 38 09 3e
       -0.05381946 0.08285536 0.0993928 0.13400438
0001c0 a6 5d f0 3d 1f 76 76 be 67 9c b3 bc 7d d6 f6 3d
       0.11736612 -0.24068497 -0.021925164 0.12052629
0001d0 00 5c 94 3d b8 0c 3c 3d 20 7c 0d 3e b1 e5 1d bd
       0.0724411 0.045910567 0.13816881 -0.03854913
0001e0 9d dc 60 3d 8f f5 8c 3e 1c 51 98 3c 89 2a 1e be
       0.054897893 0.27531096 0.018593363 -0.15445913
0001f0 94 08 8e 3d 2e 06 28 3e 7e b6 d8 3d d7 18 ba bc
       0.0693523 0.16408607 0.105816826 -0.022716923
000200 85 d9 c1 bd 41 3c 18 bd f0 62 14 bd 89 9b 18 be
       -0.09465317 -0.037166838 -0.036227167 -0.14903082
000210 1c a8 09 3e f9 df b4 bc 7a 03 44 3e 43 05 83 bd
       0.13443035 -0.022079455 0.19141951 -0.06397488
000220 f1 5a 25 3d 41 4d 95 3d e4 df 15 3d c5 e9 f9 bc
       0.04036993 0.07290126 0.036590472 -0.030506978
000230 62 a8 c3 3c 09 51 0e 3e 9a 86 87 3d 0a 1f 94 3b
       0.023884002 0.138981 0.0661747 0.0045203017
000240 e2 12 0d be 34 ed 5b 3d f9 f6 cc bc 74 e8 4c bd
       -0.13776734 0.05369301 -0.02502011 -0.050026372
000250 be 57 96 bd 58 7b 68 3e 8d 19 73 b9 c0 94 39 bd
       -0.07340954 0.22703302 -0.00023183804 -0.045307875
000260 5d 69 7c 3e 83 03 c9 bc f6 3e a1 3d 0a 5e 76 3c
       0.24649568 -0.024537807 0.07873337 0.015037069
000270 89 86 e1 3d 3c 97 1c 3e 35 8c 1e 3d 85 99 ab bc
       0.11011989 0.15292066 0.03870793 -0.020947227
000280 14 0f 62 bd d1 96 ba bd 7f 34 1e bd 55 3a 8d be
       -0.05519016 -0.09110797 -0.038624283 -0.27583566
000290 4f 07 52 3e 7d 09 df bd 08 42 df 3d 23 e4 07 be
       0.205106 -0.108904816 0.10901266 -0.13270621
0002a0 70 72 47 3e b8 bb 9b bc 94 90 50 3e 0e ad e1 3d
       0.19477248 -0.01901041 0.20367652 0.11019336
0002b0 2b f1 0e 3e 3d 93 78 3c 7f f8 8e bc 6f f5 2c 3d
       0.13959186 0.015171823 -0.017452477 0.04222625
0002c0 4d 70 44 bd a2 e1 a6 3d 58 29 09 3d 71 a4 9c bd
       -0.04795866 0.08148505 0.033486694 -0.07648552
0002d0 16 4b 3d be 9d 27 32 be 75 aa d3 bb e9 58 f7 bc
       -0.18485674 -0.17397924 -0.006459529 -0.030193763
0002e0 2c 66 58 3e 6d de 7d 3e 39 32 8f 3c 95 cb 0e be
       0.21132725 0.2479188 0.017480003 -0.13944848
0002f0 8f d4 81 3d 10 4a e0 3d 3d 39 b1 37 8f 51 c1 bd
       0.063393705 0.10951626 2.1126698e-05 -0.09439384
000300 e1 7e 6b bd e0 5b de bc 13 80 27 3d 67 70 f9 3d
       -0.057494048 -0.027143419 0.040893625 0.12179642
000310 8f 52 fa bc ec 2f 19 3e cb 29 c3 3d 19 81 65 3d
       -0.030556945 0.14959687 0.09529456 0.05603132
000320 45 8b de bd 50 b4 34 be ff c1 b5 bd 3e c1 97 3c
       -0.10866407 -0.17646909 -0.088748924 0.018524762
000330 8b 8e c0 3d 52 9f 5a 3d 9c d8 e4 3d 8e dd c1 3c
       0.09402188 0.053374596 0.111741275 0.023665216
000340 d8 ee a9 bc 54 a4 1e bd cf f3 e9 3c ce 5e aa 3d
       -0.020743772 -0.038730934 0.02855864 0.08318864
000350 da 18 9c 3d 85 d7 4e 3e 3c f6 79 bd 6f 5a 09 bc
       0.076219276 0.20199402 -0.061025843 -0.008383377
000360 13 03 02 3e 1c f6 4b bc 45 f6 3a bd 93 b6 4a 3d
       0.12696485 -0.012448814 -0.045645017 0.049490523
000370 d4 06 a5 bd b0 4e f2 bd dd bc a7 3d a7 e8 78 bd
       -0.08057943 -0.11831415 0.0819032 -0.06076875
000380 d9 3c 66 3d be 05 0a 3e 0e 8e 88 bd 37 f9 2b be
       0.056210373 0.13478753 -0.0666772 -0.16794287
000390 99 69 30 3d 2b 1a da bd 2c 8d 04 bd e5 3f 6d 3d
       0.043069456 -0.106495224 -0.032361194 0.057922263
0003a0 cc de 85 3e 3c 85 f9 bb ff 25 5e bd cd 40 33 bd
       0.26146543 -0.0076147597 -0.054235455 -0.04376297
0003b0 d7 f7 84 bd 59 c2 bb bd b1 04 0c bd 2b 3e 88 3d
       -0.06492584 -0.09167928 -0.03418416 0.066524826
0003c0 47 52 0a 3e b5 57 3f be 0a 70 80 bd da f5 94 3e
       0.13507949 -0.18685801 -0.0627137 0.2909382
0003d0 c6 ce b1 3d 39 0d b7 3c d3 54 6b bd 27 74 e3 bd
       0.08682017 0.022345172 -0.05745394 -0.11106139
0003e0 ac db 52 bd 2e 62 28 3e ab 71 97 3d 49 b7 bc bd
       -0.051479027 0.16443703 0.07394727 -0.09214646
0003f0 d4 38 1f be 3b ff 01 3e bb 47 1c 3e 9b 35 b6 3c
       -0.15549022 0.12695019 0.15261738 0.022242358

hidden_layers.0.linear2.bias f4 [64]
000000 cf 95 fa bd c8 c4 ba bc 46 90 84 3d 5e 6c 97 bd
       -0.12235605 -0.02279891 0.064728305 -0.07393716
000010 92 79 45 bd 1b fa c2 bd 25 69 ba 3d a0 91 c3 3d
       -0.04821164 -0.0952036 0.09102086 0.0954926
000020 ba a9 d6 bd 45 6b 63 bd b9 0a 8e 3d 35 89 13 bd
       -0.104815915 -0.055522222 0.06935639 -0.036019523
000030 d7 38 e9 3d b5 df 81 bd 55 a7 79 bc 94 fa a8 3d
       0.113877945 -0.06341497 -0.015237649 0.08250919
000040 03 0c bf bc 83 b1 85 3c ee 96 ae 3d f3 6a a2 3c
       -0.023321157 0.016319996 0.08524881 0.019826388
000050 b6 29 e0 bd b6 a7 b1 3c 32 9e 7c 3d 93 49 2d 3c
       -0.10945456 0.021686416 0.061674304 0.0105766235
000060 36 fd c5 bd da 9f d1 3d 87 1c 90 3c 11 e3 ef 3d
       -0.09667437 0.102355674 0.017591728 0.11713231
000070 7d 4e b2 3d 37 aa bf bc d7 5a e9 bd a6 f9 e8 bd
       0.08706377 -0.023396594 -0.113942795 -0.11375742
000080 41 da 57 bd f4 4f fc bd 4c 4f bf 3c 8a 38 b2 bd
       -0.052698378 -0.12319937 0.023353241 -0.0870219
000090 04 e9 8c 3d 5e 9a f7 3d a4 8f 86 bd ba d4 dd 3d
       0.06880382 0.1208999 -0.06570366 0.1083159
0000a0 3f 59 90 bd 61 a0 ca 3b da 87 f7 3d 0c 4f c9 bd
       -0.07048272 0.0061836694 0.120864585 -0.0982953
0000b0 1b cd c5 3c 6e a7 d8 3d b4 0b 8f bd 60 b3 a2 bd
       0.024145653 0.1057881 -0.06984654 -0.07944369
0000c0 99 87 31 3b a0 ed 95 bd 4f 37 56 3c e2 11 d2 bb
       0.002708888 -0.07320714 0.01307471 -0.006410823
0000d0 5a b0 f9 bd 9b ec 51 3d e6 0b 7a 3d 44 20 4c 3d
       -0.121918395 0.051251035 0.061046503 0.04983546
0000e0 b0 d7 37 bd 3a f4 98 3d eb 4d d6 bc 88 04 da 3d
       -0.04488343 0.074684575 -0.026160201 0.106453955
0000f0 51 42 8d bd 41 fd 27 bd ef 4e 86 3d 87 b9 6f 3d
       -0.068974145 -0.041013006 0.06558024 0.058526542

hidden_layers.0.bn2.weight f4 [64]
000000 3f 40 f4 3f e6 e7 ed 3f e9 65 0e 40 aa 40 f2 3f
       1.9082106 1.8586395 2.22497 1.8925984
000010 e6 5b 0c 40 a7 6a e2 3f 65 7b b0 3f 36 e5 e7 3f
       2.193109 1.7688798 1.3787657 1.8116825
000020 46 16 fb 3f 38 ba be 3f 5a 19 fe 3f 83 0d bb 3f
       1.9616172 1.490058 1.9851487 1.4613498
000030 d0 b6 f3 3f b5 89 d8 3f 64 1c f6 3f 96 4b 22 40
       1.9040165 1.6917025 1.9227414 2.5358634
000040 33 0a c9 3f 43 53 2d 40 90 25 bd 3f 07 1a f6 3f
       1.5706238 2.708207 1.4777088 1.9226693
000050 f2 36 de 3f 2f 6c 06 40 04 40 19 40 39 8a ed 3f
       1.7360518 2.100353 2.3945322 1.8557807
000060 12 73 ce 3f bc c7 c6 3f 56 9e f1 3f c1 eb c0 3f
       1.6128867 1.5529704 1.8876445 1.5071946
000070 90 1e 2a 40 b5 ed 11 40 43 5d f0 3f 1a 04 0b 40
       2.6581154 2.2801335 1.8778461 2.1721253
000080 c5 c0 c1 3f bd fa f7 3f 91 1b 1f 40 72 15 d3 3f
       1.5136954 1.9373394 2.4860575 1.649092
000090 89 2b e8 3f 9e 61 2c 40 09 79 c9 3f 2b 7f ff 3f
       1.8138286 2.693458 1.5740062 1.9960684
0000a0 84 17 dc 3f 59 e9 e6 3f 08 f6 ea 3f d8 ff 05 40
       1.7194676 1.8039962 1.8356333 2.0937405
0000b0 8d d2 f9 3f c4 b8 d1 3f ae 3b 1a 40 6c 13 e0 3f
       1.951738 1.6384511 2.4098926 1.7505927
0000c0 ca d9 09 40 93 db ca 3f 60 cf d2 3f 09 25 eb 3f
       2.1539178 1.5848259 1.6469536 1.8370677
0000d0 63 c8 10 40 8a 77 d7 3f d6 bb c7 3f 4a 92 f7 3f
       2.2622306 1.6833355 1.5604198 1.9341519
0000e0 35 14 b8 3f f3 3d fa 3f 57 42 1e 40 ff 07 d6 3f
       1.4381167 1.9550155 2.472799 1.672119
0000f0 3a f3 0a 40 c7 a7 d5 3f 17 44 26 40 0e 76 11 40
       2.1710954 1.6691827 2.5979059 2.2728305

hidden_layers.0.bn2.bias f4 [64]
000000 29 30 60 3f bb 70 dc 3e 77 d1 ef 3e cc 19 44 3f
       0.87573487 0.43054757 0.46839496 0.7660186
000010 6d f9 a0 3e a5 7b 0d 3f 79 4a f6 bd 7d b8 40 3e
       0.31440297 0.5526679 -0.12025923 0.18820377
000020 4a 0c 5d 3f 02 7f 1a 3f 07 db 91 3c 85 eb 15 3e
       0.86346877 0.6035005 0.017804636 0.14640625
000030 d0 06 b4 3e 0e 15 44 3f 06 ff d8 3e b3 e6 52 3e
       0.35161448 0.76594627 0.42382067 0.20595817
000040 c1 17 08 3f d4 df ff 3e fe f7 32 3f 99 e6 2b be
       0.53161246 0.49975455 0.69909656 -0.16787185
000050 ec 82 47 3f 3e cb 92 3e 30 e9 68 3a a7 b4 10 3f
       0.77934146 0.28670686 0.00088848453 0.56525654
000060 cd e8 f9 3d de eb 4b 3f 02 67 10 3f c7 10 fc 3e
       0.12202606 0.7965678 0.5640718 0.4923155
000070 30 6e c5 3d 38 c5 1d 3f ad 57 58 3f ce 58 39 3d
       0.09640157 0.61629057 0.8450878 0.045250706
000080 7c ac 92 3e c1 44 1b be e7 00 72 3d eb 6a 3f 3e
       0.2864722 -0.15162946 0.05908289 0.1869313
000090 bd 5d a5 3e 3a 8a 13 be 3e 1f 39 3f 35 ad 40 3f
       0.3229808 -0.14408198 0.72313297 0.7526429
0000a0 32 8f 65 3f b3 2f e5 bd a8 99 5e 3f 98 b1 20 3f
       0.89671624 -0.111907385 0.8695321 0.62770987
0000b0 15 48 05 be aa 00 93 3f 9f 79 83 3e 46 c3 27 3f
       -0.13015778 1.1484578 0.25678727 0.6553234
0000c0 d3 2e 23 be 4f 21 84 3d d4 86 95 bd 8a 21 16 3f
       -0.15935831 0.064516656 -0.07301107 0.58644927
0000d0 c5 47 2a 3d 77 cc d4 3e 99 c4 69 3e 8b fe 70 3e
       0.04157235 0.41562244 0.22828902 0.235346
0000e0 16 0d ee 3e aa a6 10 3f 7e eb 8e bc 80 a4 02 3f
       0.4649436 0.5650431 -0.017446276 0.5103226
0000f0 41 12 1d 3f 5b e9 1b 3f 68 7b 1f 3d 80 44 b4 3e
       0.6135598 0.6090295 0.03893605 0.3520851

hidden_layers.0.bn2.running_mean f4 [64]
000000 8a 0c 19 be 37 bf 1c 3e c0 24 ca 3e 34 bb 46 3e
       -0.1494619 0.15307318 0.39481163 0.1940735
000010 3b 4e 4e 3e b7 f6 2f bf be 30 9e be 9e 59 6f bf
       0.2014703 -0.6873583 -0.30896562 -0.9349612
000020 a4 1d 09 bf 63 fe 31 bf 4a 18 ad 3d 9f cb ec be
       -0.53560853 -0.6952879 0.084518984 -0.462491
000030 74 cb 14 be cf a7 04 bf 3d 28 e5 3d 20 64 b6 bd
       -0.14530736 -0.51818556 0.111893155 -0.08905816
000040 1c 6e e6 bd 73 2e 1d 3e 2a ae a7 3f 50 5e d1 be
       -0.112514704 0.1534975 1.3100026 -0.40892267
000050 7c f8 4b be 90 12 30 be 8f 5e 40 bd ce 67 ae be
       -0.19919008 -0.17194581 -0.046965178 -0.34063572
000060 fe e6 31 bf 05 99 f1 be 51 ff 6d 3e 03 70 e3 be
       -0.6949309 -0.47187057 0.23241927 -0.44421396
000070 ea f1 b2 3e 21 78 3f be 90 f7 03 bf 5c 1c bf be
       0.3495019 -0.1869817 -0.51549625 -0.37326324
000080 8f f0 d9 be d1 89 88 3e 28 8f f0 3e a6 ff 48 be
       -0.42566344 0.26667646 0.4698422 -0.19628772
000090 d7 0d d8 be 99 f1 29 be ef 24 48 be f6 cc ac bd
       -0.4219806 -0.16596068 -0.19545339 -0.08437531
0000a0 03 c2 b8 3e 11 12 b3 3e 33 18 4d be 19 e8 1b bf
       0.3608552 0.3497472 -0.20028763 -0.6090103
0000b0 5e 52 a8 be b5 17 64 3f 87 0d c5 bc d8 83 c0 3e
       -0.3287534 0.89098674 -0.024054302 0.3760059
0000c0 ed b0 4a 3e eb 5a d6 be f5 c3 b5 be 9d 5e d8 3e
       0.19794054 -0.4186624 -0.35501066 0.42259684
0000d0 7e 56 f9 be 3d 43 16 3f 8e 31 d3 3e 2d 87 5f be
       -0.486988 0.5869635 0.41248745 -0.21828909
0000e0 b3 6e 26 3f 94 5f 36 bf 5f 11 94 be 11 c7 21 3f
       0.65012664 -0.7123959 -0.28919503 0.63194376
0000f0 0c 91 8d bf 9c bb 18 bf 32 de a7 3e 06 6a 04 bf
       -1.105989 -0.5966127 0.3278671 -0.5172428

hidden_layers.0.bn2.running_var f4 [64]
000000 a4 0b 58 3e f2 ef 17 3d cb 1d b5 3d 30 ec 96 3e
       0.2109819 0.037094064 0.08843573 0.29477072
000010 31 99 99 3d 25 b0 2a 3e 68 91 1b 3f 81 c0 da 3e
       0.07499922 0.16668756 0.6076875 0.42724994
000020 0a 26 14 3e 68 84 03 40 7c 7e f5 3d d7 c3 97 3e
       0.14467636 2.0549564 0.119870156 0.296416
000030 10 74 d5 3d 13 d7 0d 3e 41 6b 9a 3e ea d8 05 3e
       0.10422528 0.13851576 0.30159953 0.13071027
000040 fb 16 40 3e e2 18 c7 3d e6 67 3e 40 85 52 c3 3d
       0.18758766 0.09721543 2.9750915 0.09537224
000050 03 42 00 3e ca 34 9f 3d 26 3f 6e 3e 6a 3c 54 3e
       0.12525181 0.077737406 0.23266277 0.20726171
000060 4e 8b 37 3f e9 94 82 3f 82 a9 9a 3d c2 77 0d 3f
       0.7169694 1.0201694 0.07551862 0.5526086
000070 5a 47 62 3e 21 d9 96 3d 72 d8 1a 3e 63 97 5b 3d
       0.22097531 0.07365633 0.1512163 0.05361117
000080 8b 92 d0 3d 4f d3 a8 3d c9 d0 20 3e 3e e7 57 3d
       0.10184201 0.08243429 0.15704645 0.052710764
000090 8a 3d 3a 3f 64 20 80 3d 93 e0 4e 3f 63 05 b5 3d
       0.7275015 0.06256178 0.80811423 0.08838918
0000a0 c6 33 71 3e c2 65 6a 3e 58 a5 4a 3e f6 fb 3b 3e
       0.23554906 0.2289038 0.19789636 0.18357834
0000b0 1d 53 cb 3d 50 ef d6 3f 53 97 1a 3d 72 c9 27 3e
       0.09927962 1.6791782 0.03774197 0.16385439
0000c0 89 a4 51 3d fb 4b b9 3d fa 42 f6 3d 3a 86 9a 3d
       0.051182304 0.09047695 0.120244935 0.07545133
0000d0 6e 6a 43 3e 92 31 d6 3e f1 1a 11 3e bb 76 06 3e
       0.19083568 0.41834694 0.14170434 0.1313123
0000e0 5c d9 73 3f e8 79 e1 3e b0 2f df 3d 20 cb 2f 3f
       0.9525354 0.4403832 0.108977675 0.6866932
0000f0 49 22 92 3f e6 8a 21 3e 51 85 a6 3d dc ec f7 3d
       1.1416713 0.15775642 0.08130897 0.12105724

hidden_layers.1.linear1.weight f4 [64, 64]
000000 0a d3 51 be ac c9 1e bf 6d 4d d5 3e 81 f4 b1 bd
       -0.20490661 -0.62026477 0.41660634 -0.086892135
000010 00 4f 4a 3e b2 01 39 bf 16 69 20 be a6 5b 3b bd
       0.19756699 -0.7226821 -0.15665087 -0.0457417
000020 38 f4 0e bf 5b cd c1 3d 29 d7 4c bc ab 3f 8d bd
       -0.558414 0.094629966 -0.01250247 -0.06896909
000030 7f 8a 21 bf 11 85 53 3d b9 2a 81 bf c0 58 02 3e
       -0.63101953 0.051640574 -1.0091163 0.12729168
000040 b5 42 8f bd 05 97 a1 3e e3 54 f7 bc 20 df 4a bd
       -0.06995145 0.3156053 -0.030191844 -0.049529195
000050 05 d0 f5 3d 1f 20 ab 3e ee f6 15 3e a7 ff 65 bf
       0.12002567 0.33422944 0.14644977 -0.8984322
000060 38 3e da be 0e 37 d4 bc 0a 6a 03 bf 25 b2 25 bd
       -0.42625594 -0.025905158 -0.5133368 -0.040453095
000070 9d 3f 27 3d 86 5b 67 be ad 1b 30 bf 27 d4 8b 3e
       0.04083215 -0.22593507 -0.6879223 0.27310297
000080 0c 82 22 be ef 21 33 be 31 03 7d bd 2f 5e d3 3d
       -0.15869921 -0.17493413 -0.06177062 0.103206985
000090 1b 10 09 bf 08 6a 04 bd 5d 11 ec 3c 71 0f 13 bf
       -0.535402 -0.03232768 0.028816873 -0.57445437
0000a0 ec a5 28 bd ad be 00 39 83 c9 76 bd 5b 3a b3 be
       -0.04117386 0.00012278064 -0.06025077 -0.3500546
0000b0 60 ad 5b be 32 76 e6 3d 4f 34 1c 3e e8 9a 93 bd
       -0.21452856 0.11253013 0.15254329 -0.072072804
0000c0 ec c6 49 3e 85 0c b6 3d ad 06 9c bd ca 97 f0 bc
       0.19704789 0.08889107 -0.07618461 -0.029369254
0000d0 ba 5d db 3e 40 7c 79 3d 47 19 10 3e c7 d5 ee bd
       0.42844945 0.06090951 0.14072143 -0.116618685
0000e0 6e d5 2a 3d 41 2f b8 3e f6 b4 f8 3e 24 ef 12 3d
       0.04170745 0.35973552 0.48575562 0.035872594
0000f0 47 93 d8 3d 1b f2 21 bf 0c 45 ad 3d a1 b8 7a 3e
       0.10574966 -0.6326005 0.08460435 0.24484493
000100 35 89 27 3e a6 78 6d 3f 7f 1e e4 bd e8 a8 89 be
       0.16360934 0.9276222 -0.11138629 -0.26886678
000110 51 5a 84 bd 27 50 dc 3e 06 af 54 bd 68 ed 19 bd
       -0.06462539 0.430299 -0.051924728 -0.037579924
000120 14 1a 0b 3f 48 f7 90 bd c4 37 72 3b c0 f8 00 be
       0.5433667 -0.07078415 0.0036959508 -0.1259489
000130 2b ce df 3e 9c 48 7e bd ed 6d 2c 3f f3 ff 05 bf
       0.4371198 -0.062080964 0.67355233 -0.5234367
000140 c7 47 53 3b 23 e0 86 be 28 6c b5 bd 8d 3f 36 3c
       0.0032238828 -0.26342878 -0.0885852 0.01112355
000150 ea e2 da bc d5 0a f1 bd 69 e9 9a bc 3f 59 a8 bd
       -0.02671953 -0.11769644 -0.018910127 -0.08220147
000160 c1 ab 19 3e 16 b4 46 bd e9 cb 03 3f da 27 8f be
       0.15006925 -0.048511587 0.5148302 -0.27960092
000170 cc f2 27 bd 98 12 6c bd 48 c7 07 be 4c 0e 78 bc
       -0.041003034 -0.05763492 -0.13259614 -0.015140127
000180 37 3c 85 3d 02 78 4a be 73 30 65 3d 8f f0 91 3d
       0.06505626 -0.19772342 0.055954408 0.07125961
000190 fa 34 91 3d b1 02 c4 3d c4 93 ee bd e0 66 29 3f
       0.070901826 0.09570826 -0.11649278 0.661726
0001a0 46 70 c6 bd a8 0f 86 be 94 b8 e0 3c 79 39 bf bd
       -0.09689383 -0.2618382 0.027431764 -0.09337134
0001b0 a5 51 e7 bd de 95 c5 3c 75 1e b3 bd 1f 58 00 be
       -0.11294869 0.024119314 -0.087460436 -0.12533616
0001c0 2e e3 41 be 66 96 0a be a7 d0 57 bd 4f 58 97 3d
       -0.18934318 -0.13533935 -0.05268922 0.073898904
0001d0 a3 0c aa be 3d df d3 bd d9 d2 1d bd d1 0e 15 be
       -0.33212766 -0.10345314 -0.038531158 -0.14556433
0001e0 5a b9 1a bd 9c 4e 2f be 96 4f f9 bd 7f 22 a7 bc
       -0.03777442 -0.17119831 -0.12173383 -0.020402191
0001f0 61 4c 41 be 5d 35 44 3e fb 75 a3 bd fb e5 18 bf
       -0.18876792 0.19160981 -0.07981487 -0.5972592
000200 81 0f 80 3d db 33 44 3f 56 f1 61 3d 17 80 2f 3d
       0.06252957 0.76641625 0.055161797 0.042846765
000210 69 2d 8d 3d 76 f3 12 3f 60 45 bd be b9 6f bb 3d
       0.06893427 0.5740274 -0.3696699 0.09152169
000220 ab e7 ef 3e 1f e3 e6 3d 9f a6 9c bd 26 ab bb bc
       0.46856436 0.11273789 -0.07648968 -0.022908758
000230 19 d0 bd 3e 3c 94 b4 bd 08 39 46 3e 5c c3 31 bf
       0.37072828 -0.08817336 0.19357693 -0.6943872
000240 9b d6 96 bd 15 d6 ec 3d b2 c5 18 bd 71 be 44 bd
       -0.073651515 0.115642704 -0.037297912 -0.04803318
000250 fa 36 d3 bd ae b7 e0 3d 82 da a6 bd fc 48 0c 3e
       -0.1031322 0.10972534 -0.08147146 0.13699716
000260 66 71 a2 3d 38 05 75 bd 79 8c 51 3f c9 b4 a0 bc
       0.07931785 -0.05981943 0.8185497 -0.019617455
000270 53 b2 42 3e 7a 46 18 3e 2c 43 af 3c e5 0a 83 3e
       0.19013338 0.14870635 0.021394335 0.2559425
000280 bb b7 2a bc 98 b8 49 3e 71 ef df 3e df 94 1b bc
       -0.010419781 0.19699323 0.43737367 -0.009495943
000290 45 b2 c7 bc 7f 84 ec 3d 43 8c 5b bd 6e e7 34 3f
       -0.024376998 0.11548709 -0.05360056 0.70665634
0002a0 64 3b eb 3c e4 bb 18 3e 76 05 13 be 90 b0 0e bd
       0.028714843 0.14915425 -0.14357552 -0.034836352
0002b0 15 f1 60 3b 43 d7 86 3d 9a 6b 84 3d 76 e9 67 3b
       0.0034323384 0.06584027 0.06465836 0.0035386956
0002c0 62 a5 18 bd b1 c5 2d 3a 51 b8 a4 b9 1e 77 d6 3d
       -0.037267096 0.00066288846 -0.00031417844 0.104719386
0002d0 fa 3e cf be 21 54 7b bd a3 be be bd 02 57 4b 3c
       -0.40477735 -0.06135953 -0.09313705 0.012410881
0002e0 84 87 b3 bc ff 96 10 bb 6a 11 18 3d d3 85 8a 3d
       -0.021915205 -0.0022062657 0.037125982 0.06763806
0002f0 d3 97 10 3e ce 57 75 3e 25 6d 7a 3d 8e 23 1f bf
       0.14120416 0.23959276 0.061139245 -0.6216363
000300 d0 49 cb 3c a4 ed 03 bf 69 6d ad bd cc 44 c7 bc
       0.02481547 -0.51534486 -0.08468134 -0.024324797
000310 75 63 48 bd f8 95 98 be 9e 29 63 3e a7 61 9a 3e
       -0.048922975 -0.29801917 0.22183844 0.30152628
000320 fc 50 bb be f3 d4 b9 bc 4d 39 98 3c 3e a7 8d 3d
       -0.36585224 -0.02268455 0.01858201 0.069166645
000330 63 1d c7 be b1 46 09 3e e8 73 c2 be a4 c5 8e 3f
       -0.38889608 0.13405873 -0.37979054 1.1154065
000340 d6 46 94 bb f1 cd 50 bc 9a 3c 88 3d 82 7b c8 bd
       -0.004525046 -0.012744413 0.06652184 -0.09789182
000350 c2 f2 32 ba 01 04 7e bd ba 3d d2 3e 79 79 83 bc
       -0.0006826335 -0.062015537 0.4106272 -0.016049134
000360 c4 5a 44 bb 8c 90 2a 3d 6f 2a e0 be 77 82 d9 3d
       -0.0029961327 0.041641757 -0.43782374 0.10620587
000370 7d 5f 16 3f 70 f2 3b be 85 9d af bd c0 cc b5 bd
       0.58739454 -0.18354201 -0.08574966 -0.088769436
000380 0e e5 29 3e bd 33 f9 3c 4a ce c7 3d 43 5c 9d 3c
       0.16591284 0.030420179 0.097561434 0.019209033
000390 6b 72 32 be 2c b5 8a 3d 0d fe 92 bd 77 28 86 be
       -0.1742646 0.06772837 -0.071773626 -0.26202747
0003a0 5e 17 b3 bb 9a 34 72 bd a4 1a 0f 3e 71 7b 68 be
       -0.005465432 -0.059132196 0.13975006 -0.22703339
0003b0 b5 21 29 3e 2d 2c 31 bd 2c 31 cf bd 36 b5 52 bd
       0.16516764 -0.04325502 -0.10116801 -0.051442347
0003c0 55 9e 4c be b0 60 b9 3b 4f a3 d9 3d 82 5f 95 3d
       -0.19982274 0.005657278 0.10626852 0.07293607
0003d0 f7 1b 39 3f 76 e2 2a 3d d3 69 64 bd da 31 5c be
       0.72308296 0.041719876 -0.055764984 -0.21503392
0003e0 3a f0 48 3d 69 bb 94 3e 76 24 1f 3e 79 a9 61 b9
       0.049057223 0.29049233 0.15541252 -0.00021520806
0003f0 c0 12 36 be 59 54 91 be b8 ec 18 bd e2 eb 1b 3f
       -0.1778059 -0.28384665 -0.037335128 0.60906804

hidden_layers.1.linear1.bias f4 [64]
000000 32 7e f4 3c e3 9a c7 bd c7 7c e6 bd a9 a1 84 bd
       0.02984533 -0.09746339 -0.11254268 -0.06476147
000010 9d 46 ad bd c2 95 84 3d ee 68 80 3d 05 b2 3c 3c
       -0.08460734 0.064738765 0.06270014 0.011517053
000020 42 42 a7 bd 50 8e bd bb 82 26 5f 3d 31 25 03 bc
       -0.081669345 -0.0057847872 0.054480083 -0.008004473
000030 50 b5 a9 bd 39 a8 aa 3d d8 c0 d8 bd a8 1e 21 bd
       -0.08286536 0.08332867 -0.10583657 -0.039335877
000040 d3 40 ec 3c f7 ad 84 3d b1 4c db bd 52 f0 a2 3d
       0.028839504 0.06478494 -0.10707987 0.07955994
000050 f5 d7 64 bc 1c 08 2a 3d 02 af 68 3d b8 b8 d3 3d
       -0.013967504 0.04151164 0.056807525 0.10337967
000060 5c ae 5d bd 5e b2 a9 bc dd b6 e7 bb 9d 98 1c bd
       -0.05412136 -0.020714935 -0.0070713595 -0.03823148
000070 95 19 a6 3d 34 96 ba bc 2e 2c 90 3c 75 0e b1 3c
       0.08110348 -0.0227767 0.017599192 0.021613339
000080 10 f8 f6 3c f9 f7 82 3b 63 3a e1 3c ab b5 01 bc
       0.030147582 0.003996846 0.027493661 -0.007916848
000090 97 24 e1 bd 1a 9b ed 3d 1b 42 86 3d 92 8c 88 3d
       -0.10993307 0.11601849 0.06555577 0.06667437
0000a0 54 51 4e bd 7a 3f 98 bd 20 91 c1 bd 86 b4 6a 3d
       -0.05037053 -0.07433982 -0.094515085 0.057301067
0000b0 58 dc b1 3d e2 0e 05 bd a5 8a 32 3d cf ac 9b bc
       0.08684605 -0.032484896 0.043589253 -0.0190033
0000c0 f0 43 39 3d 64 db e4 3d 1e f4 31 3d c7 25 1d 3c
       0.045230806 0.11174658 0.0434457 0.009591526
0000d0 52 7c da bd 37 9c 29 bd 44 57 69 3c 4f 7b 6d bd
       -0.106682435 -0.041408744 0.014241997 -0.057978924
0000e0 cd e8 f3 3d 9e 32 e7 3d 74 5d c0 bd 3e 8b 3a bc
       0.119096376 0.11288951 -0.09392825 -0.011385737
0000f0 a2 16 f6 bd 81 a3 be 3d 9e 9b ae 3d 46 a0 75 bd
       -0.120160356 0.0930853 0.085257754 -0.0599673

hidden_layers.1.bn1.weight f4 [64]
000000 66 44 84 3f ec 4a 78 3f 5a c8 70 3f 9d 74 6f 3f
       1.0333374 0.9698932 0.9405571 0.9353731
000010 00 bb 56 3f 54 e9 78 3f 98 f3 36 3f 78 94 87 3f
       0.8387909 0.9723103 0.71465445 1.0592184
000020 7d a0 86 3f 4e 7e 8a 3f 35 43 70 3f d1 19 6f 3f
       1.0517727 1.0819795 0.9385255 0.9339877
000030 32 9c 7a 3f 1a 12 65 3f 52 75 89 3f 40 95 69 3f
       0.97894585 0.89480746 1.0738928 0.9124336
000040 e3 f4 6a 3f be 61 5e 3f 46 39 82 3f 66 29 64 3f
       0.9177992 0.8686789 1.0173728 0.8912567
000050 bb 09 80 3f 63 a4 55 3f ed ab 54 3f 2e 59 54 3f
       1.000297 0.8345396 0.8307484 0.8294858
000060 77 45 54 3f 59 b5 4d 3f 42 3a 57 3f eb de 84 3f
       0.82918495 0.8035484 0.8407327 1.0380529
000070 ff 8b 4c 3f 24 75 73 3f c4 6a 49 3f 49 cb 7f 3f
       0.7990112 0.9510062 0.78678536 0.99919564
000080 f4 95 68 3f f8 00 9b 3f f6 02 6b 3f 19 cd 70 3f
       0.9085381 1.2109671 0.91801393 0.94062954
000090 a8 e0 83 3f 6c 6d 81 3f 23 eb 4e 3f e5 8c 7f 3f
       1.0302935 1.0111518 0.8082754 0.99824363
0000a0 56 46 38 3f ce d0 71 3f d2 9d 4d 3f 53 13 74 3f
       0.71982324 0.94459236 0.8031894 0.95341986
0000b0 f7 5b 8e 3f 65 18 6f 3f 85 b0 7f 3f 44 36 5d 3f
       1.1121815 0.933966 0.9987872 0.8641093
0000c0 78 61 6c 3f 5d ed 81 3f 64 47 98 3f 98 d7 78 3f
       0.92336226 1.0150563 1.1896787 0.9720397
0000d0 c7 8a 6e 3f 03 7b 56 3f 1e b5 87 3f d8 07 3a 3f
       0.9318051 0.8378145 1.0602148 0.7266822
0000e0 91 8a 7d 3f d3 c6 79 3f a1 b0 81 3f 9b 62 81 3f
       0.9903956 0.97569007 1.0132028 1.0108217
0000f0 32 a1 57 3f 06 69 43 3f 94 df 89 3f b6 5e 91 3f
       0.8423034 0.7633213 1.0771356 1.1357028
