Watch_exercise_measurement/Creative_model/jupyter_VeryDeepRegressionModel.pth (torch, 330791 bytes, 41 tensors)

input_layer.weight f4 [64, 4]
0	0xbcf976ef	-0.03045222
1	0x3d600d3c	0.05470012
2	0x3d853574	0.06504336
3	0xbdc1b0f5	-0.0945758
4	0x3e964702	0.2935105
5	0x3d215b65	0.0393938
6	0xbe9c03e3	-0.30471715
7	0xbef6e8c7	-0.4822447
8	0x3ce68d20	0.028143466
9	0xbd9c22f8	-0.07623857
10	0xbed3fc5c	-0.41403472
11	0x3e08fcf4	0.13377744
12	0x3ec589f2	0.38581806
13	0x3d9a489b	0.0753338
14	0x3e924687	0.28569433
15	0xbf6a7cca	-0.91596663
16	0xbf1e9821	-0.6195088
17	0x3ec29f1f	0.38012025
18	0x3ec2b3ac	0.38027704
19	0xbf1ab735	-0.604358
20	0x3e61c462	0.2204757
21	0xbefeafa6	-0.49743384
22	0x3e72facb	0.23728482
23	0xbd1ce7ab	-0.038306873
24	0xbe8fbbbf	-0.28072926
25	0x3e25293b	0.1612901
26	0xbf06d642	-0.5267068
27	0x3f1df8df	0.6170787
28	0x3cee5520	0.029093325
29	0xbcea2a60	-0.02858466
30	0x3de292d0	0.110631585
31	0xbeb296a8	-0.34880567
32	0x3e8d71ce	0.2762589
33	0xbc734ae0	-0.014849395
34	0x3f095c9b	0.5365693
35	0xbe025781	-0.12728693
36	0xbd857b40	-0.06517649
37	0xbe9098fc	-0.28241718
38	0xbeddb70e	-0.43303722
39	0xbeec12e4	-0.46108162
40	0xbee88e24	-0.45420945
41	0x3eca3412	0.39492851
42	0x3ef67961	0.4813948
43	0xbeb08fe3	-0.34484777
44	0x3e82b9f3	0.25532493
45	0x3dde7724	0.10862568
46	0xbeebd38f	-0.46059844
47	0xbe9acc0e	-0.30233806
48	0xbe9c2baf	-0.30502078
49	0x3e4c6dc4	0.19963747
50	0xbee8b9cc	-0.45454252
51	0xbd2b729c	-0.041857347
52	0x3e55ff1e	0.208981
53	0xbe956b4a	-0.29183418
54	0x3eb42b56	0.35189313
55	0xbde265f1	-0.110546
56	0x3ef37775	0.47552076
57	0x3ea13c16	0.31491154
58	0x3d279d10	0.04092127
59	0xbe9ec850	-0.310122
60	0x3ee50049	0.4472678
61	0x3e40592a	0.18784013
62	0x3b4e129f	0.0031444205
63	0xbf2543b4	-0.6455643
64	0xbe3e4c88	-0.18583882
65	0xbedbb87c	-0.42914188
66	0x3eaed908	0.34149957
67	0xbec8187c	-0.3908118
68	0xbf291fb3	-0.66063994
69	0x3e49e264	0.19715267
70	0xbe9bb720	-0.3041315
71	0x3f12c9ce	0.5733918
72	0x3e616b5e	0.22013614
73	0x3ec67454	0.38760626
74	0x3e65f96b	0.22458427
75	0xbdbff7e8	-0.09373456
76	0xbf3f1a57	-0.74649566
77	0x3deee406	0.11664586
78	0xbf34d06e	-0.7063054
79	0xbec1e4db	-0.37869915
80	0x3e18d113	0.14923505
81	0xbbc8dba5	-0.0061296993
82	0x3ed2638d	0.41091576
83	0xbe862d32	-0.26206356
84	0xbeb84e94	-0.3599745
85	0xbee81030	-0.4532485
86	0x3d263500	0.04057789
87	0xbef364e4	-0.4753791
88	0xbd84b4a8	-0.0647977
89	0x3ce8ccd5	0.028417984
90	0x3ea47f68	0.32128453
91	0x3cdffcd5	0.02734224
92	0xbe0a9821	-0.13534595
93	0x3e5b5068	0.21417391
94	0x3e5085b5	0.20363505
95	0x3e82c2a1	0.25539115
96	0x3ee63802	0.44964606
97	0xbe1796ce	-0.14803621
98	0xbcf36165	-0.029709527
99	0xbe35ca55	-0.17752965
100	0x3eb4c06b	0.35303053
101	0x3d5473b3	0.051868152
102	0xbeb885ca	-0.36039573
103	0xbe8cc83b	-0.27496514
104	0x3e918006	0.28417987
105	0x3eabe58c	0.33573568
106	0xbd79cb0c	-0.060984656
107	0xbe051d85	-0.12999542
108	0x3e9cf546	0.3065588
109	0xbef674da	-0.48136026
110	0xbec948ec	-0.39313447
111	0xbeac497c	-0.33649814
112	0xbe99c5d2	-0.30033737
113	0xbe8f65b8	-0.28007293
114	0xbe984e1a	-0.29747087
115	0xbdaff5a8	-0.08591777
116	0xbe628d06	-0.22124109
117	0xbc10dd2a	-0.008841792
118	0xbe6afd36	-0.22948155
119	0x3f564703	0.83702105
120	0x3f3bbed9	0.73338085
121	0xbf12fe94	-0.57419705
122	0xbebc0780	-0.36724472
123	0x3cbb7295	0.022881785
124	0x3f10f935	0.5663026
125	0xbd2d3bcb	-0.04229335
126	0x3e0ec503	0.13942342
127	0xbe149b34	-0.1451233
128	0xbeff3bcf	-0.49850318
129	0x3e00666c	0.12539071
130	0x3e944874	0.28961527
131	0x3eb865b8	0.36015105
132	0x3e551140	0.20807362
133	0x3e3ce609	0.18447126
134	0xbeb0efad	-0.34557858
135	0x3dd1f18c	0.102511495
136	0x3f0ad74c	0.54234767
137	0xbd21d510	-0.039509833
138	0xbe2b3d65	-0.16722639
139	0x3f16ea15	0.5895093
140	0x3e7bdfbc	0.24597067
141	0xbce68d76	-0.028143626
142	0x3f44aa82	0.76822674
143	0x3ed94c8f	0.42441222
144	0xbeed1606	-0.46305865
145	0xbe52a768	-0.20571673
146	0xbe9c002e	-0.30468887
147	0x3e51920c	0.20465869
148	0x3f0ff8af	0.56238836
149	0xbe511dfb	-0.20421593
150	0x3f1cc60c	0.61239696
151	0xbb241ca5	-0.0025041488
152	0xbeebf0f4	-0.4608227
153	0x3ea5820b	0.32325777
154	0xbe912fd4	-0.28356802
155	0x3dcab373	0.098975085
156	0xbe83524b	-0.25648722
157	0x3ce99dc7	0.028517617
158	0x3e8e571f	0.27800843
159	0xbd2f9485	-0.04286625
160	0x3ea6af46	0.32555598
161	0x3e953950	0.29145288
162	0xbe992e79	-0.29918268
163	0x3f2b196b	0.6683566
164	0xbcabfbd9	-0.020994114
165	0xbe10dfb3	-0.14147834
166	0x3f1e692d	0.61879236
167	0x3f05bc91	0.52240855
168	0xbd1f3f0e	-0.038878493
169	0xbd91fd2d	-0.071283676
170	0x3f387f7a	0.72069514
171	0x3db49f79	0.088194795
172	0xbefd5480	-0.4947853
173	0xbce2c140	-0.02768004
174	0xbef897f8	-0.48553443
175	0xbec8229e	-0.3908891
176	0x3e80a028	0.2512219
177	0x3d71736c	0.058947966
178	0xbf4d5335	-0.8020509
179	0xbed4de91	-0.41576055
180	0x3ef8e314	0.48610747
181	0xbf015b9a	-0.505304
182	0x3f1935ee	0.59847915
183	0x3ea0d037	0.31408855
184	0x3eab251f	0.3342676
185	0x3d28f621	0.04125035
186	0x3eedeed6	0.4647128
187	0xbf19224b	-0.5981795
188	0x3ef89f79	0.48559168
189	0xbce34140	-0.027741075
190	0x3e838519	0.25687483
191	0xbeb5bc26	-0.35495108
192	0x3e633312	0.2218745
193	0xbe59c8fc	-0.21268076
194	0xbe3db4e6	-0.18526039
195	0xbc9789df	-0.01849836
196	0xbf5313fa	-0.82452357
197	0x3dd28d2b	0.10280832
198	0x3dafca0f	0.085834615
199	0x3f1363a4	0.57573915
200	0x3e5b74d4	0.21431285
201	0xbeb9e4d5	-0.36307397
202	0x3edbfbb8	0.42965484
203	0x3dd6f679	0.1049623
204	0xbf1129df	-0.56704515
205	0x3c9b182e	0.018932428
206	0x3ec06f95	0.3758513
207	0x3ea7a25a	0.32741052
208	0x3eac4495	0.33646074
209	0x3c86358f	0.01638296
210	0x3f2c8d54	0.6740315
211	0x3cc988aa	0.0246013
212	0x3ec8af18	0.39196086
213	0xbcc17ca3	-0.023619002
214	0x3f22467b	0.63388795
215	0x3e659380	0.22419548
216	0x3ea649f7	0.32478306
217	0xbd0b7260	-0.034044623
218	0x3da9c833	0.08290138
219	0x3dd71d59	0.105036445
220	0xbe96a57d	-0.29423133
221	0xbefd5310	-0.49477434
222	0x3eafd3a2	0.3434115
223	0x3eac4f15	0.33654085
224	0x3b681200	0.003541112
225	0xbe9c4470	-0.30520964
226	0x3e33b868	0.17550814
227	0xbe93b188	-0.28846383
228	0xbd68aed3	-0.05680735
229	0xbef319e5	-0.47480693
230	0x3eb01595	0.34391466
231	0x3ea04b3e	0.31307405
232	0x3eac1f63	0.33617696
233	0x3d860835	0.06544534
234	0xbf2c3fb2	-0.6728469
235	0x3e58a979	0.21158399
236	0xbed4732c	-0.4149412
237	0x3d5e0f2c	0.054213688
238	0x3f370818	0.71496725
239	0x3e8a04e7	0.26956865
240	0x3d71b754	0.059012726
241	0xbdd00a37	-0.10158198
242	0xbea4cea3	-0.321889
243	0x3e292139	0.1651658
244	0xbeeadb34	-0.45870364
245	0x3ba02b80	0.004887998
246	0xbeb48cd8	-0.35263705
247	0xbe574934	-0.21024019
248	0x3ee9c93d	0.45661345
249	0xbc1fb625	-0.0097480165
250	0xbebd6224	-0.36988938
251	0x3ea27c13	0.31735286
252	0xbe8cc82d	-0.27496472
253	0xbe141f0e	-0.14464971
254	0x3f340945	0.70326644
255	0x3edd680d	0.43243447

input_layer.bias f4 [64]
0	0x3eb87222	0.36024576
1	0x3edc6587	0.4304621
2	0xbdaeb6b0	-0.085309386
3	0x3c75de88	0.015006669
4	0x3c146e50	0.009059504
5	0x3eec804a	0.46191627
6	0xbea084d6	-0.31351346
7	0xbeee035a	-0.46486932
8	0x3f096705	0.5367282
9	0xbed4847e	-0.41507334
10	0xbe926b24	-0.28597367
11	0xbf0c7ab0	-0.54874706
12	0xbf0a0591	-0.53914744
13	0x3d8f6381	0.07001401
14	0xba67cca8	-0.0008842447
15	0x3f20bdd4	0.62789655
16	0xbe5ca2e0	-0.21546507
17	0xbecc34f8	-0.39884162
18	0xbea459d9	-0.32099798
19	0xbefa4e19	-0.4888771
20	0x3ecb0394	0.39651167
21	0xbd8a3d78	-0.067500055
22	0x3eb2b584	0.3490411
23	0x3ebd6bb0	0.36996222
24	0xbea07e22	-0.31346232
25	0xbc026906	-0.00795961
26	0x3ef787c7	0.48345777
27	0x3e8c868a	0.27446395
28	0x3daf00a8	0.08545047
29	0x3ec17e86	0.37791842
30	0xbc16f50b	-0.009213696
31	0x3f1840d8	0.59473944
32	0x3b01826b	0.0019761573
33	0xbe30135e	-0.17194888
34	0x3d7c6109	0.061615977
35	0xbd514902	-0.051095016
36	0xbe488af8	-0.19584262
37	0x3f1f6177	0.62258095
38	0x3dbdfb21	0.09276415
39	0x3dd80bfd	0.105491616
40	0xbe6a9f89	-0.2291242
41	0xbeb2a69d	-0.3489274
42	0xbded038f	-0.115729444
43	0x3ef6f4de	0.48233694
44	0xbedb1925	-0.4279262
45	0x3e953576	0.2914235
46	0x3ea6bc67	0.32565615
47	0x3e9dc554	0.30814612
48	0xbd242dd0	-0.040082753
49	0x3f458c5f	0.77167314
50	0xbe3a1ab8	-0.18174255
51	0x3d5b7568	0.053578764
52	0x3dd2e553	0.102976464
53	0x3e82244b	0.25418314
54	0x3db6abdc	0.08919498
55	0xbe280811	-0.16409327
56	0xbe808cae	-0.2510733
57	0xbdd32462	-0.10309674
58	0x3e5f18d1	0.2178681
59	0xbdf47e71	-0.11938179
60	0xbdf5939c	-0.11991045
61	0xbdae8460	-0.08521342
62	0x3e2932ef	0.16523336
63	0x3e349d5b	0.17638151

hidden_layers.0.weight f4 [64, 64]
0	0xbdf1d334	-0.11807862
1	0xbc5fa180	-0.013649344
2	0x3d2c7ff0	0.0421142
3	0xbde627b8	-0.112380445
4	0x3dc4cb90	0.09609139
5	0x3c6512b0	0.013981506
6	0xbd155d88	-0.03646615
7	0x3dbd729e	0.09250377
8	0x3df35870	0.118821025
9	0x3dce5fcc	0.100768656
10	0xbdd785c6	-0.10523562
11	0x3b9cfa80	0.004790604
12	0x3dee39a0	0.11632085
13	0x3dbd03e4	0.09229258
14	0xbdb609ac	-0.088885635
15	0x3d9c80f4	0.07641783
16	0x3da8355c	0.082133025
17	0xbb9e2d00	-0.0048271418
18	0xbdeaa03a	-0.11456342
19	0x3cb58810	0.022159606
20	0xbdf37594	-0.118876606
21	0xbda1229c	-0.07867929
22	0x3c4f4590	0.012650862
23	0xbda950c0	-0.08267355
24	0xbd4ffca0	-0.05077803
25	0x3db97420	0.09055352
26	0xbdbebc9e	-0.093133196
27	0x3da2f31c	0.07956526
28	0x3d1f14d0	0.038838208
29	0xbc6836f0	-0.014173254
30	0xbde82938	-0.11335987
31	0xbd7ffd9c	-0.06249772
32	0xbd491544	-0.049092546
33	0x3da18a0c	0.078876585
34	0xbb9d2020	-0.0047950894
35	0x3c9cb588	0.01912953
36	0x3d3af96c	0.045648023
37	0xbdae9d80	-0.085261345
38	0x3d227238	0.03965971
39	0x3df2449c	0.118294924
40	0x3c80aaf0	0.01570651
41	0x3d70e8e4	0.05881585
42	0xbdcda766	-0.10041694
43	0x3d307fb4	0.043090537
44	0xbdd30be8	-0.10305005
45	0xbcc6ed38	-0.024283037
46	0xbd69a704	-0.057044044
47	0xbd551b3c	-0.052027926
48	0x3d0657e0	0.032798648
49	0xbdfc3ef8	-0.12316698
50	0x3d4b6fa0	0.049667
51	0xbdc24dd4	-0.09487501
52	0x3d173ea4	0.036924973
53	0xbb38ff80	-0.0028228462
54	0xbd2c6be0	-0.042095065
55	0x3c8f5900	0.017498493
56	0x3c8d14a0	0.017221749
57	0xbdc5c1be	-0.09656094
58	0xbd107d80	-0.035275936
59	0x3d6596e0	0.05605209
60	0x3ddce8aa	0.10786565
61	0xbd060450	-0.032718956
62	0x3d295008	0.04133609
63	0xbd89da56	-0.067310974
64	0x3cd62c1a	0.026144076
65	0xbd85e742	-0.065382496
66	0x3d788ec0	0.060683012
67	0xbd770aff	-0.06031322
68	0xbde5b967	-0.11217003
69	0x3d898a8b	0.06715878
70	0x3dc47eb8	0.09594482
71	0xbde69646	-0.11259131
72	0x3e4a5134	0.19757539
73	0xbd1cd970	-0.038293302
74	0xbd01aee8	-0.031660944
75	0x3d896421	0.06708551
76	0xbd775255	-0.060381252
77	0xbd0f32f0	-0.034960687
78	0xbde75f29	-0.11297447
79	0xbdd156f2	-0.102216616
80	0x3d25c3b8	0.040469855
81	0x3d9dca38	0.07704586
82	0xbc98e6fd	-0.018664831
83	0xbe821a3e	-0.25410646
84	0xbcbeee82	-0.023307089
85	0xbdebcde4	-0.1151388
86	0xbd7b5b9f	-0.061366674
87	0x3b220c3c	0.002472653
88	0xbf123071	-0.57105166
89	0x3dd9cb86	0.10634522
90	0x3d9f3e2c	0.0777553
91	0x3de2ac14	0.110679775
92	0x3df76052	0.120789185
93	0x3f9e09df	1.2346762
94	0x3f484acd	0.78239137
95	0xbd9f84bc	-0.07788989
96	0x3d519d79	0.05117557
97	0x3de1851b	0.11011716
98	0x3f171825	0.59021217
99	0x3e302cac	0.17204541
100	0x3d934702	0.07191278
101	0x3e4df445	0.20112713
102	0x3d92ac6e	0.071617946
103	0x3b9f4908	0.004861001
104	0x3e1396ed	0.14413042
105	0xbf09806b	-0.53711575
106	0x3e55a0fc	0.20862192
107	0x3dc8be32	0.09801902
108	0x3cf67f34	0.030089952
109	0x3e547901	0.20749284
110	0xbdeb5788	-0.11491305
111	0xbeb5f401	-0.35537723
112	0x3eaa5352	0.33266693
113	0xbbb4ccfb	-0.0055175996
114	0xbce00bb2	-0.027349327
115	0xbdf86bef	-0.12129962
116	0xbbc422ec	-0.0059856083
117	0x3dae1611	0.085003026
118	0xbcc7312f	-0.024315445
119	0xbe5560dc	-0.2083773
120	0xba56db00	-0.00081960857
121	0xbdcbccfd	-0.09951208
122	0xbc1fde0f	-0.009757533
123	0xbd09a8a3	-0.03360809
124	0x3b5c9ba3	0.0033662103
125	0x3dccd85e	0.10002206
126	0x3e0b6826	0.13613948
127	0xbf357eb3	-0.7089645
128	0xbd807ca0	-0.0627377
129	0x3e046da1	0.12932445
130	0xbdcc62fa	-0.09979816
131	0x3e435870	0.19076705
132	0xbcf6fdd6	-0.030150335
133	0xbe906da7	-0.28208658
134	0x3d33b9ae	0.04387825
135	0x3d4f30b4	0.050583556
136	0x3e0941f0	0.1340406
137	0x3d98e982	0.07466413
138	0xbdaee0b4	-0.085389525
139	0x3da944b3	0.082650565
140	0x3c2c3867	0.010511494
141	0xbe60204e	-0.21887323
142	0xbd8069f1	-0.06270207
143	0x3dd2bcd9	0.10289926
144	0xbdb07466	-0.08615951
145	0xbdb3f0c4	-0.08786157
146	0x3e0f75dd	0.14009805
147	0xbf273832	-0.6532012
148	0x3e83e2c3	0.25758943
149	0x3de522ee	0.11188303
150	0x3d8fe178	0.070254266
151	0x3d0af4dc	0.033924922
152	0xbdf4158a	-0.11918171
153	0x3e0d2939	0.13785256
154	0x3d761163	0.060075175
155	0xbd950e2a	-0.07278092
156	0x3c40b460	0.011761755
157	0xbf500f1a	-0.81273043
158	0xbed4bf71	-0.41552308
159	0x3e9692f4	0.2940899
160	0x3d0c2147	0.034211423
161	0xbb956d3c	-0.004560141
162	0x3d6b2c64	0.05741538
163	0x3c831c14	0.0160046
164	0x3dc4054e	0.09571324
165	0x3e1f8344	0.15577418
166	0xbdd06504	-0.10175517
167	0xbc792e51	-0.015208797
168	0xbdc3fa78	-0.095692575
169	0x3f14f703	0.5818941
170	0xbee3d17d	-0.44495764
171	0x3dee232c	0.11627802
172	0x3b4c1f76	0.0031146682
173	0x3e44f15e	0.192327
174	0x3e10f419	0.14155616
175	0x3f29527e	0.661415
176	0xbe527766	-0.2055336
177	0xbcbb4754	-0.02286116
178	0xbe2c8db9	-0.16850938
179	0xbecdcc5b	-0.40194973
180	0xbd292f7c	-0.04130505
181	0x3debdfc9	0.11517293
182	0xbdf3269c	-0.118725985
183	0xbd8215f7	-0.06351846
184	0x3dcbb68c	0.099469274
185	0x3ddce96b	0.107867084
186	0x3d875826	0.0660861
187	0xbe16358a	-0.14668861
188	0xbd2d22d0	-0.042269528
189	0x3d6f742c	0.0584604
190	0xbd211775	-0.03932901
191	0xbdf2809e	-0.11840938
192	0x3d0b28c9	0.033974443
193	0xbcee7a48	-0.029111043
194	0xbdd0f940	-0.10203791
195	0x3db85e1c	0.09002325
196	0xbdb6b9cb	-0.08922156
197	0x3d114986	0.035470508
198	0xbdfc5ff3	-0.12322988
199	0x3dddbb1c	0.10826704
200	0x3d8fe336	0.07025759
201	0x3c9a1bb8	0.018812045
202	0x3c275a12	0.0102143455
203	0x3dc2ae4b	0.095059
204	0xbd0d7d28	-0.034543186
205	0xbd43f81c	-0.047844037
206	0x3d5d1d6e	0.053983144
207	0x3db5d300	0.08878136
208	0x3dca6f54	0.098845154
209	0x3dbcbe41	0.092159756
210	0x3beb6fb4	0.007184947
211	0xbeadee83	-0.33971033
212	0xbe01432f	-0.12623285
213	0x3dbb7ac6	0.091542765
214	0xbd0d01a1	-0.03442538
215	0xbe03c613	-0.12868528
216	0xbf559ac9	-0.8343931
217	0x3ded7539	0.11594624
218	0x3d287d5c	0.041135177
219	0xbd99b2a8	-0.07504779
220	0xbdc463c6	-0.09589343
221	0xbee88278	-0.4541204
222	0xbedae98f	-0.42756316
223	0x3e2f42b7	0.17115293
224	0x3d9a62c5	0.0753837
225	0x3db2a7ff	0.08723449
226	0x3cd5783e	0.026058313
227	0xb90dcfe3	-0.00013524252
228	0x3dede17a	0.11615272
229	0xbdd5b662	-0.104351774
230	0x3c865673	0.016398644
231	0xbe64560d	-0.22298451
232	0xbd84d248	-0.064854205
233	0x3d40d9f9	0.047082875
234	0xbe2f1582	-0.17098048
235	0x3b8f9f20	0.004382983
236	0xbdee3a45	-0.11632208
237	0xbed0d68b	-0.40788683
238	0xbde82553	-0.11335244
239	0x381cfc9f	3.742857e-05
240	0xbdb07927	-0.08616858
241	0x3bd500f8	0.0065003596
242	0x3d1de24d	0.038545895
243	0xbf0fe2be	-0.56205356
244	0x3b8f373a	0.004370597
245	0x3dc54269	0.09631807
246	0x3e2b7ab1	0.16746022
247	0xbe3b91bf	-0.18317316
248	0x3d4bee08	0.04978755
249	0xbd04a4b8	-0.03238365
250	0x3db62bc4	0.088950664
251	0xbe16633f	-0.14686297
252	0xbd64daa7	-0.055872586
253	0x3de3cc1e	0.11122917
254	0x3cec355c	0.028834037
255	0x3e9438e4	0.28949654

hidden_layers.0.bias f4 [64]
0	0xbc9cf0d0	-0.019157797
1	0x3e607297	0.21918713
2	0x3f176ab2	0.5914718
3	0x3e6cd5ff	0.23128508
4	0x3e071d26	0.13194713
5	0x3e33e4ab	0.17567699
6	0x3e557344	0.20844752
7	0xbdaec8ad	-0.085343696
8	0x3db3753a	0.087625936
9	0x3d1f7c26	0.038936757
10	0x3eb590df	0.3546209
11	0x3e90fc0f	0.28317305
12	0x3e484f8c	0.19561595
13	0xbd93b2ba	-0.07211824
14	0x3dda0065	0.106446065
15	0x3d1cb560	0.03825891
16	0x3d94c9e6	0.072650716
17	0x3df9e3de	0.12201665
18	0xbe2e3afd	-0.1701469
19	0x3ebfa631	0.3743148
20	0xbd0ad4ff	-0.033894535
21	0x3e50aa75	0.20377524
22	0x3eb1e251	0.34742978
23	0xbe0641d3	-0.13111047
24	0x3db319c8	0.08745152
25	0x3e0f8db7	0.14018904
26	0x3df2bccb	0.11852416
27	0xbddd01c0	-0.107913494
28	0xbd4465c0	-0.0479486
29	0xbd8d7390	-0.069068074
30	0x3c933356	0.017968815
31	0x3d0d549c	0.034504518
32	0x3e776a38	0.24161613
33	0xbd924e4c	-0.0714384
34	0xbd4487c1	-0.047981028
35	0x3c1fd67c	0.009755727
36	0x3e039b0e	0.12852117
37	0x3de6c3d4	0.1126782
38	0x3d82da85	0.063893355
39	0x3e9de1a8	0.30836225
40	0xbd4ca3d3	-0.049960922
41	0xbdebde5b	-0.1151702
42	0x3dca214b	0.098696314
43	0xbdf4786c	-0.11937031
44	0x3d99dc7c	0.07512757
45	0xbb882b4b	-0.0041555515
46	0x3e4f242e	0.20228645
47	0x3d299b20	0.041407704
48	0xbcc3b98b	-0.023892185
49	0x3cc761a6	0.024338555
50	0x3ea2fd92	0.31834084
51	0xbc633cf1	-0.01386951
52	0xbe1e2a26	-0.15445766
53	0xbdf30ce2	-0.118676916
54	0x3e90ae5c	0.28258026
55	0xbcafe1fb	-0.02147006
56	0x3e4b3b64	0.19846874
57	0xbd9f98b6	-0.07792799
58	0x3d04d846	0.032432817
59	0x3dce9b5e	0.10088228
60	0x3ee80c84	0.4532205
61	0x3c2e0370	0.010620937
62	0xbde75f04	-0.1129742
63	0x3f2753f4	0.6536248

hidden_layers.1.weight f4 [64, 64]
0	0xbdf33858	-0.11875981
1	0xbd259ae7	-0.04043093
2	0x3ce35557	0.027750654
3	0xbde3c96d	-0.11122403
4	0xbe861d86	-0.261944
5	0x3a369198	0.0006964444
6	0xbc578ba4	-0.0131558515
7	0x3db5cd75	0.088770784
8	0x3e4b3da5	0.19847734
9	0x3dbf579d	0.09342883
10	0xbcb2a965	-0.02180929
11	0x3d2b4e5d	0.04182278
12	0x3e5c2172	0.21497133
13	0xbdbb16ac	-0.09135184
14	0xbdc2beaf	-0.09509026
15	0x3d66c048	0.056335717
16	0xbd395950	-0.04525119
17	0x3d6dcc54	0.05805619
18	0xbc7aae6c	-0.0153003745
19	0x3e002aa0	0.1251626
20	0xbad69150	-0.0016370211
21	0x3dca2f7e	0.0987234
22	0x3c289e47	0.0102916425
23	0xbd82b944	-0.06382993
24	0xbd50b276	-0.050951444
25	0x3e4b6507	0.19862758
26	0x3ce714e4	0.028208204
27	0xbd84e1c0	-0.06488371
28	0xbccc5ea8	-0.02494748
29	0x3d1c785c	0.03820072
30	0xbe1c2ac5	-0.1525069
31	0xbc571500	-0.013127565
32	0xb9fda233	-0.00048376768
33	0x3e3c5420	0.18391466
34	0x3cb868d6	0.022510927
35	0x3e1bef2a	0.15227953
36	0xbd468ca5	-0.048473973
37	0xbe1ee62d	-0.15517493
38	0x3df3ecca	0.11910398
39	0xbde9c327	-0.114141755
40	0x3d1240ea	0.035706438
41	0xbc87ef08	-0.016593471
42	0xbc812de1	-0.015768947
43	0xbbf82d9f	-0.007573798
44	0x3dc045f1	0.0938834
45	0xbd33e223	-0.043916833
46	0x3e72ce92	0.23711613
47	0x3d0b0c33	0.03394718
48	0xbd368dab	-0.0445687
49	0x3e24ff27	0.16112958
50	0x3e04522a	0.12921968
51	0xbd23b829	-0.03997055
52	0x3c931e4b	0.01795878
53	0xbd0dbd48	-0.03460434
54	0x3e7d0666	0.24709472
55	0x3e699b14	0.22813064
56	0x3e2451e7	0.16046868
57	0x3d34efc4	0.04417397
58	0x3d51865f	0.051153537
59	0x3e03a6f6	0.1285666
60	0x3ce73b93	0.02822665
61	0xbbbc4160	-0.005745098
62	0x3da28bbc	0.079368085
63	0x3dcafa98	0.09911078
64	0xbdc7307e	-0.09726046
65	0x3ac32185	0.0014887309
66	0x3d7596b5	0.05995818
67	0x3bf08860	0.007340476
68	0xbd59c228	-0.053163677
69	0xbdb40a14	-0.08790985
70	0xbc405c0b	-0.011740695
71	0xbe0d2eda	-0.13787404
72	0x3e194bb4	0.14970285
73	0x3df68421	0.1203692
74	0xbdbfac86	-0.09359078
75	0xbdc7641b	-0.097358905
76	0x3e8a98d1	0.27069715
77	0x3af6c000	0.0018825531
78	0x3e43cfde	0.19122264
79	0x3d3f4e88	0.046705753
80	0x3be66420	0.007030979
81	0x3e86e4a1	0.26346305
82	0xbe62df8b	-0.22155587
83	0x3e0ef76e	0.13961574
84	0x3ef6f3b7	0.48232815
85	0x3dc1a38c	0.09455022
86	0x3da74623	0.081676744
87	0xbdf8b533	-0.12143936
88	0xbc72bcdb	-0.014815534
89	0x3df3bf1f	0.11901688
90	0xbcaa9548	-0.020823136
91	0xbdb93776	-0.090437815
92	0xba69b800	-0.0008915663
93	0xbd7d21cc	-0.06179981
94	0xbd20be07	-0.039243724
95	0x3db88044	0.0900884
96	0xbe16c190	-0.14722276
97	0x3d481063	0.048843753
98	0x3df49634	0.119427115
99	0x3e88d061	0.2672148
100	0x3d998af7	0.074972086
101	0x3af1ca2a	0.001844709
102	0xbda8f0e2	-0.0824907
103	0xbe854a0e	-0.26033062
104	0xbdbce60e	-0.09223567
105	0x3cdf01b0	0.027222484
106	0x3e727041	0.23675634
107	0xbd88f1b4	-0.06686726
108	0x3c991790	0.018687993
109	0xbd8099e8	-0.06279355
110	0x3ec53760	0.3851881
111	0xbddd13c6	-0.10794787
112	0x3c608e10	0.013705745
113	0xbd978d53	-0.07400002
114	0x3e3d2f15	0.18474992
115	0x3b82b4e0	0.003988847
116	0xbd8a7607	-0.06760793
117	0x3b92ad80	0.004476249
118	0x3ed88def	0.42295787
119	0x3e3afa4e	0.18259546
120	0x3e1ba96c	0.15201348
121	0xbdf768e8	-0.12080556
122	0x3e217ce5	0.157703
123	0x3dccac80	0.09993839
124	0x3eb8d608	0.36100793
125	0xbdfd3646	-0.123638675
126	0xbc626cb0	-0.013819858
127	0x3d58552f	0.052815612
128	0xbd644c34	-0.055736735
129	0x3d40d318	0.047076315
130	0xbd87611c	-0.06610319
131	0xbdd7b44e	-0.10532437
132	0xba87822f	-0.001033848
133	0xbdccb364	-0.099951535
134	0xbc1d9fcc	-0.009620618
135	0xbe132220	-0.14368486
136	0xbd8866a6	-0.06660204
137	0xbe0b80e2	-0.13623384
138	0xbd8aa7f7	-0.06770318
139	0xbe10bc55	-0.14134343
140	0xbda98c08	-0.08278662
141	0xbde1f1ec	-0.11032471
142	0x3c616c67	0.013758755
143	0xbd4d49b4	-0.050119117
144	0xbda278d8	-0.07933205
145	0xbe6cbd66	-0.23119125
146	0x3d96cb46	0.0736299
147	0xbe48b7cb	-0.19601361
148	0x3db355cc	0.08756599
149	0xbc5bbe63	-0.013412091
150	0xbd9b7177	-0.07590001
151	0x3d029944	0.031884447
152	0x3d91e2bb	0.071233235
153	0x3cff5568	0.031168655
154	0x3d86bdcf	0.06579172
155	0xbd77d458	-0.06050524
156	0xbc0a6b30	-0.008448407
157	0x3d888edc	0.06667873
158	0x3d8c542a	0.068519905
159	0xbc780a90	-0.015139237
160	0x3d8e25c0	0.06940794
161	0x3dcf07f1	0.101089366
162	0x3d8dfad1	0.06932605
163	0xbd426ff3	-0.047470044
164	0x3cb0b680	0.021571398
165	0xbe06a23e	-0.13147828
166	0xbd87d312	-0.06632055
167	0xbe0ef67a	-0.13961211
168	0x3d29f714	0.041495398
169	0x3cb4a640	0.02205193
170	0x3c240e14	0.010013122
171	0xbc113dc0	-0.00886482
172	0x3bd7fd40	0.006591469
173	0x3d6e1f50	0.05813533
174	0xbd346771	-0.044043962
175	0x3c95c7dc	0.018283777
176	0xbdcba7a6	-0.09944086
177	0xbba76157	-0.0051080394
178	0xbe322922	-0.17398503
179	0x3c472628	0.012155093
180	0x3c90427e	0.017609831
181	0xbcf41e80	-0.0297997
182	0xbc206ae6	-0.009791112
183	0xbe14b046	-0.14520368
184	0xbd17d946	-0.037072442
185	0xbd12f72c	-0.035880253
186	0xbbffee21	-0.0078103696
187	0x3d9615a8	0.07328349
188	0x3d06dd90	0.032926142
189	0xbd2dba8c	-0.042414233
190	0xbcf87d40	-0.030333161
191	0xbe578192	-0.21045521
192	0xbd908ffa	-0.07058711
193	0x3baa624a	0.0051997053
194	0xbddf69b6	-0.10908835
195	0xbd9354c6	-0.071939036
196	0xbe0a95e3	-0.1353374
197	0xbd0b9969	-0.03408185
198	0xbd4467a0	-0.047950387
199	0xbd8c6d3d	-0.06856773
200	0xbda6df59	-0.08148069
201	0xbe004b43	-0.1252871
202	0xbdc3acc6	-0.09554438
203	0x3d70bf85	0.058776397
204	0xbe09fd03	-0.13475423
205	0x3d7cc258	0.06170878
206	0xbdc9fbe6	-0.09862499
207	0x3df9f552	0.12204994
208	0xbc040820	-0.008058578
209	0xbe0bc127	-0.136479
210	0xbd586974	-0.052834943
211	0xbd3ce8a1	-0.04612029
212	0xbd169c30	-0.036770046
213	0xbde4ac74	-0.11165705
214	0xbdb46924	-0.088091165
215	0x3db0f97f	0.086413376
216	0xbb7118c0	-0.0036788434
217	0xbdce2ab2	-0.10066737
218	0xbdb4f35e	-0.08835481
219	0x3dff3c38	0.12462658
220	0x3a585a00	0.0008253157
221	0xbd22b3d8	-0.039722294
222	0x3da05924	0.07829502
223	0xbdd3d1e8	-0.10342771
224	0xbe080e56	-0.13286719
225	0x3d9f77c4	0.07786515
226	0x3db58f50	0.08865225
227	0x3d4a311c	0.04936324
228	0xbcad17c0	-0.021129489
229	0x3db7daea	0.089773014
230	0xbd767e68	-0.060179144
231	0x3b9df5a0	0.0048205405
232	0x3d7b5080	0.061356068
233	0x3d9fa214	0.07794586
234	0x3d9b216f	0.07574736
235	0xbd9fb552	-0.07798256
236	0x3a888300	0.0010415018
237	0x3a997c80	0.0011710078
238	0xbd9a3f7e	-0.075316414
239	0xbd996620	-0.07490182
240	0xbd25152c	-0.040303394
241	0xbbfacf43	-0.007654102
242	0xbd425df7	-0.047452893
243	0xbce5d2b0	-0.028054565
244	0xbcfbd96e	-0.030743327
245	0x3d5d4d50	0.05402881
246	0xbdfce9b7	-0.12349265
247	0xbcbf3287	-0.023339523
248	0xbde74c64	-0.11293867
249	0xbdc3ad2e	-0.09554516
250	0x3dea25c2	0.11432983
251	0xbdb46bee	-0.088096485
252	0x3c8e6e10	0.017386466
253	0x3c2ff3c0	0.010739267
254	0xbdae272e	-0.08503567
255	0x3a7ebe1e	0.0009717661

hidden_layers.1.bias f4 [64]
0	0xbd9d6f29	-0.07687218
1	0x3de11003	0.10989382
2	0xbd8e3ab5	-0.06944791
3	0xbd0cc486	-0.034367107
4	0xbe5143c6	-0.2043601
5	0xbd286d60	-0.041119933
6	0x3d41a050	0.047272027
7	0x3cbd1921	0.023083271
8	0x3eca1083	0.39465722
9	0x3ed7fc46	0.42184657
10	0x3eaefdfe	0.34178156
11	0x3e300627	0.17189847
12	0x3eb7a6df	0.358695
13	0x3a02cadf	0.00049893366
14	0xbe3baf67	-0.1832863
15	0xbd0f836e	-0.03503745
16	0x3e37954a	0.17928043
17	0xbed74828	-0.42047238
18	0x3de6a4dd	0.11261914
19	0xbd67330f	-0.056445178
20	0xbd0aea68	-0.033914953
21	0xbe77e3a6	-0.24207935
22	0x3d901bfc	0.070365876
23	0xbdf6521a	-0.120273784
24	0x3dacb74c	0.084333986
25	0x3e4b8a9b	0.19877093
26	0x3eff5072	0.49866062
27	0xbc833115	-0.016014615
28	0xbd67adb0	-0.056562126
29	0xbddf4b3e	-0.10903023
30	0x3dcf41da	0.10119982
31	0x3e85dc76	0.2614476
32	0x3edd0c39	0.43173388
33	0x3d9dbb20	0.07701707
34	0xbd75e85a	-0.06003604
35	0x3ea424aa	0.32059222
36	0x3c9344e2	0.017977182
37	0x3e11516a	0.14191213
38	0xbea2b824	-0.31781113
39	0x3dfc0533	0.12305679
40	0x3eab094c	0.3340553
41	0xbe870bf9	-0.26376322
42	0x3ee72fa8	0.45153546
43	0x3dc0da42	0.094166294
44	0xbd5198b3	-0.051171016
45	0x3ed0420e	0.40675396
46	0x3f48978e	0.78356254
47	0x3eb0a0ea	0.34497768
48	0x3bb692e0	0.005571708
49	0x3e97c5d0	0.29643106
50	0xbd4511c4	-0.048112646
51	0x3da05cd3	0.07830205
52	0x3ee967f2	0.45587116
53	0x3d81f0f1	0.06344784
54	0x3ef24cc9	0.47324207
55	0x3ded6628	0.115917504
56	0x3d457af8	0.048212975
57	0x3df61673	0.120160006
58	0x3e890371	0.26760438
59	0x3ef4355e	0.47696966
60	0xbe69a04c	-0.22815055
61	0x3e5a6876	0.21328911
62	0xbdebb59d	-0.11509249
63	0x3f0b405a	0.5439507

hidden_layers.2.weight f4 [64, 64]
0	0xbe112e7b	-0.14177887
1	0x3e804535	0.250528
2	0x3dc7833e	0.09741829
3	0xbdef803e	-0.11694382
4	0xbdd50966	-0.10402183
5	0x3c5efe26	0.013610398
6	0xbdb758c8	-0.089524806
7	0xbcdeb620	-0.027186453
8	0x3da458d2	0.08024754
9	0xbe666437	-0.22499166
10	0x3d982698	0.07429236
11	0xbdb9c995	-0.09071652
12	0x3c5667c3	0.013086262
13	0x3de6a93a	0.11262746
14	0xbdac4961	-0.084124334
15	0x3d1e7e18	0.03869447
16	0x3d78fe63	0.060789477
17	0xbe06595b	-0.13120024
18	0xbd0871b0	-0.033311546
19	0x3c290980	0.010317206
20	0xbdc6898c	-0.09694204
21	0x3cbba0d5	0.02290384
22	0xbc9b8242	-0.01898301
23	0x3dc034d4	0.09385076
24	0x3c630fd0	0.01385875
25	0xbe73ad42	-0.23796561
26	0xbe22b29c	-0.15888447
27	0xbc98a1f8	-0.01863192
28	0xbd5ef250	-0.054430306
29	0x3df80ce2	0.12111832
30	0x3e1fe241	0.15613653
31	0x3bb9419d	0.0056535737
32	0x3ddba69f	0.1072514
33	0xbcb33a10	-0.021878272
34	0xbd96d6b8	-0.07365173
35	0xbd4a91c1	-0.049455408
36	0xbdb8d1ce	-0.09024392
37	0x3d53bdc9	0.051694665
38	0xbdba4409	-0.09095008
39	0xbd34da7c	-0.044153675
40	0xbe2fbf66	-0.17162856
41	0xbccfa27a	-0.02534603
42	0xbd007058	-0.03135714
43	0xbdd1860a	-0.10230644
44	0xbd206334	-0.039157107
45	0xbe05b32d	-0.13056631
46	0x3b1b1afc	0.0023667207
47	0x3d80fd97	0.062983684
48	0x3d104f7c	0.035232052
49	0x3da9731a	0.08273907
50	0xbcb0f2b8	-0.021600112
51	0x3d4d78b0	0.050163925
52	0x3e08a3ae	0.13343689
53	0xbd73a69c	-0.059485063
54	0xbe827bc3	-0.25485048
55	0x3d9511ff	0.07278823
56	0x3d9b839c	0.07593462
57	0xbd9291b2	-0.071566954
58	0xbd8e64fe	-0.069528565
59	0xbda0c944	-0.07850888
60	0x3dad9616	0.08475892
61	0xbe127200	-0.143013
62	0xbdb3e96a	-0.087847546
63	0x3dd3363c	0.10313079
64	0xbd8bf99b	-0.06834718
65	0xbe4c8669	-0.19973148
66	0x3da920ad	0.082581855
67	0xbd486810	-0.048927367
68	0xbe1e65c6	-0.15468511
69	0x3dd17a83	0.102284454
70	0xbba18cb7	-0.0049301046
71	0x3d79b4af	0.06096333
72	0x3dbcdc06	0.09221654
73	0x3ce22731	0.027606579
74	0x3c980f06	0.018561851
75	0xbdfc7ff7	-0.12329095
76	0x3bb6a35c	0.005573673
77	0xbd604633	-0.054754447
78	0xbddf4a15	-0.10902802
79	0x3d1524e4	0.036412135
80	0x3caf981c	0.021434836
81	0x3da41cec	0.08013329
82	0xbd02516d	-0.031815935
83	0xbd111c7b	-0.03542755
84	0x3d45ad54	0.048261
85	0x3d517cd8	0.05114445
86	0xbe481133	-0.19537811
87	0x3daf4d35	0.08559648
88	0xbd8a5df6	-0.06756203
89	0x3c2000c0	0.009765804
90	0x3da1315f	0.07870745
91	0x3db62883	0.08894446
92	0xbd677c3c	-0.056514964
93	0xbdbd72a2	-0.0925038
94	0x3d0d2fd8	0.034469455
95	0x3ce83b83	0.02834869
96	0x3dadf70a	0.084943846
97	0xbc90caaf	-0.017674772
98	0xbda0b1c3	-0.07846405
99	0xbc527b4a	-0.012846777
100	0x3d807d5a	0.06273909
101	0x3db20164	0.086916715
102	0x3ce38ecd	0.027778054
103	0xbc07410e	-0.008255256
104	0x3d857939	0.06517262
105	0xbe20340a	-0.15644851
106	0xbd922767	-0.07136422
107	0x3cabb558	0.020960495
108	0x3ceefbc0	0.029172778
109	0xbcac8a93	-0.021062171
110	0x3e1b6afe	0.15177533
111	0xbcf68e8b	-0.030097267
112	0x3d512008	0.051055938
113	0x3e15b2c4	0.14618975
114	0xbdc2a7dc	-0.09504673
115	0xbd49738a	-0.049182452
116	0x3bd8ee2b	0.0066201887
117	0xbdc12385	-0.09430603
118	0xbdb8739e	-0.09006427
119	0xbc7853dd	-0.015156713
120	0xbd5e4e62	-0.05427397
121	0xbd97e8c9	-0.07417447
122	0x3df189b7	0.11793845
123	0xbd91fa15	-0.071277775
124	0xbf7a1aca	-0.97697127
125	0x3d3e8668	0.0465149
126	0x3c868fb4	0.016425945
127	0xbda3e37b	-0.08002373
128	0xbc763f5b	-0.015029754
129	0xbdd8a80c	-0.105789274
130	0x3dcb6d39	0.09932942
131	0x3dc42d30	0.09578931
132	0xbc25ef41	-0.010127843
133	0x3d85bcb4	0.06530133
134	0x3cb6e09f	0.022323905
135	0xbdd2a162	-0.102846876
136	0xbdec9a8f	-0.11552917
137	0xbe1d17c2	-0.15341094
138	0xbe1e00ef	-0.15430044
139	0xbd0f3b91	-0.034968916
140	0xbe083f8d	-0.13305493
141	0xbdf3d9a2	-0.119067445
142	0x3d71967a	0.058981396
143	0xbdd650c3	-0.10464623
144	0xbdc3c655	-0.09559313
145	0xbc54e987	-0.01299513
146	0x3d84e6d1	0.06489337
147	0xbd007e58	-0.03137049
148	0x3dea4968	0.114397824
149	0xbcfcf0ba	-0.030876506
150	0xbdc795b2	-0.09745349
151	0x39d73fcc	0.00041055528
152	0x3df5528c	0.11978635
153	0xbdfcc713	-0.12342658
154	0xbcd3da5e	-0.025860962
155	0xbd9452dc	-0.07242367
156	0x3db74d22	0.08950259
157	0xbd669690	-0.05629593
158	0xbd1b265e	-0.037878387
159	0xbd5ae982	-0.053445347
160	0xbd7b6c8c	-0.061382815
161	0x3da7670d	0.08173952
162	0x3d896754	0.067091614
163	0x3d689516	0.056782804
164	0xbcace221	-0.02110392
165	0x3d1eda8d	0.038782645
166	0xbdb5c6b1	-0.08875788
167	0xbda63be4	-0.08116892
168	0xbdb376e1	-0.08762909
169	0xbd75eaf0	-0.060038507
170	0xbd86d6b8	-0.06583923
171	0xbb938800	-0.0045022964
172	0xbdba4582	-0.09095289
173	0xbd36f1ff	-0.04466438
174	0x3d480cd7	0.04884037
175	0x3d2e96e2	0.04262436
176	0xbdb1bf7e	-0.08679102
177	0xbdb244d8	-0.08704537
178	0x3cc16d38	0.02361165
179	0x3dfb30f1	0.12265194
180	0x3d666e35	0.056257445
181	0x3d1d0163	0.0383314
182	0xbd8391a5	-0.06424264
183	0xbdeef6ed	-0.11668191
184	0x3d3e0d0e	0.04639917
185	0xbd171b82	-0.036891468
186	0xbe25885a	-0.16165295
187	0x3d58a733	0.05289383
188	0xbd994f94	-0.074858814
189	0xbd584868	-0.052803427
190	0xbdbb30d5	-0.09140173
191	0xbdc9b155	-0.098482765
192	0x3dcd8c3d	0.10036514
193	0x3b02b19f	0.0019942296
194	0xbcc8dc78	-0.02451919
195	0x3d86eb22	0.06587817
196	0xbd38e8cb	-0.045143884
197	0x3cccc4f0	0.02499625
198	0x3dc55cca	0.09636839
199	0x3d675748	0.056479722
200	0xbdda6890	-0.10664475
201	0xbdfe7acd	-0.12425766
202	0xbc692348	-0.014229603
203	0xbd05b5d4	-0.032644108
204	0x3da91428	0.082557976
205	0xbd9c1ca2	-0.07622649
206	0x3c766530	0.015038773
207	0x3df07ffe	0.117431626
208	0x3d27e0f4	0.040986016
209	0x3ddf77cf	0.109115236
210	0xbd27c920	-0.040963292
211	0xbd615838	-0.055015773
212	0xbd9ce510	-0.07660878
213	0x3dc4544d	0.095863916
214	0x3d75b0a8	0.059982926
215	0xbcb8dc01	-0.022565844
216	0xbd2107d8	-0.03931412
217	0xbce00bcd	-0.027349377
218	0x3dbd55fa	0.09244914
219	0xbddc00bc	-0.107423276
220	0x3c624740	0.013810933
221	0x3ad22c00	0.0016034842
222	0x3da1ef74	0.07907
223	0xbe115bff	-0.1419525
224	0xbcac40c0	-0.021026969
225	0xbddeeb0e	-0.10884677
226	0x3d40d9d8	0.047082752
227	0xbdb73706	-0.08946042
228	0xbb1a0800	-0.0023503304
229	0x3d71a67c	0.058996662
230	0xbe00e701	-0.12588121
231	0x3d835418	0.06412524
232	0xbe0bdbaf	-0.13658021
233	0x3d9bf8a0	0.07615781
234	0xbd0b212f	-0.033967193
235	0x3d0660c4	0.032807127
236	0xbd44c624	-0.048040524
237	0xbdef824d	-0.11694775
238	0x3cf72068	0.03016682
239	0xbd4f5ef5	-0.050627667
240	0xbd48770c	-0.048941657
241	0xbdf6ef3b	-0.12057348
242	0x3de5ce62	0.11221005
243	0x3df5cee4	0.12002352
244	0x3cbd5f4d	0.023116732
245	0xbdd95464	-0.10611799
246	0x3dcf7225	0.10129193
247	0xbc940667	-0.01806946
248	0x3dd54d0a	0.10415085
249	0x3c5d90de	0.013523309
250	0xbcd7eb70	-0.026357383
251	0xbd68b140	-0.056809664
252	0x3d854c59	0.06508703
253	0xbd9868cd	-0.07441864
254	0x3ca5d2d0	0.020242125
255	0xbdb2cbb2	-0.08730258

hidden_layers.2.bias f4 [64]
0	0xbdbe7025	-0.092987336
1	0x3ef8b9cb	0.4857925
2	0x3c21d591	0.009877578
3	0xbd68329b	-0.056688886
4	0x3d8c1b58	0.06841153
5	0x3dfc6b6f	0.12325179
6	0x3eef6b7a	0.46761686
7	0x3e146120	0.14490175
8	0x3f064b58	0.52458715
9	0x3de552c2	0.111974254
10	0x3de1a98a	0.11018665
11	0x3ed34769	0.4126542
12	0xbda0eb43	-0.078573726
13	0x3d5e79a2	0.054315217
14	0xbce43ece	-0.027861979
15	0x3ed881bf	0.42286488
16	0x3d994d63	0.074854635
17	0xbdbae549	-0.09125764
18	0x3e4d975a	0.20077267
19	0x3ee608cd	0.4492859
20	0xbc1454ae	-0.009053392
21	0xbdd8479d	-0.10560534
22	0xbdeb3068	-0.11483842
23	0x3ee0a98b	0.4387935
24	0x3d3b6cc2	0.045758016
25	0x3eb76e13	0.35826167
26	0xbd27c8b4	-0.04096289
27	0x3edeacbe	0.43491167
28	0x3ef7375b	0.4828442
29	0x3f011610	0.5042429
30	0x3de8177a	0.11332603
31	0x3eb87d07	0.36032888
32	0x3d5bf822	0.053703435
33	0x3ee073bc	0.43838298
34	0x3ebd4037	0.36963055
35	0x3ec76c9e	0.38950056
36	0x3edfb002	0.4368897
37	0x3e9d873b	0.30767235
38	0x3d9a65bc	0.075389355
39	0xbdc69430	-0.09696233
40	0x3f090178	0.53517866
41	0x3ebcdc65	0.36886898
42	0xbdf1fc56	-0.118157074
43	0xbd534f58	-0.05158934
44	0xbda91c0a	-0.08257301
45	0x3c0a75ac	0.008450907
46	0x3ed9a979	0.4251211
47	0x3d95d963	0.07316854
48	0x3ec490b9	0.38391665
49	0x3eb73206	0.35780352
50	0x3eddb944	0.4330541
51	0x3f1a471f	0.6026477
52	0x3b208d2a	0.0024498203
53	0x3edc5169	0.4303086
54	0x3edfcde0	0.43711758
55	0xbd9d3949	-0.07676942
56	0xbf0048f2	-0.50111306
57	0xbdc92c36	-0.09822886
58	0x3ee0e3d3	0.43923816
59	0x3edd6d95	0.43247667
60	0x3f149169	0.5803438
61	0x3f1ebc91	0.6200648
62	0x3eaaf210	0.33387804
63	0x3f1f1fc5	0.6215785

hidden_layers.3.weight f4 [64, 64]
0	0x3ccc1818	0.024913833
1	0xbd300185	-0.0429702
2	0x3d4e6177	0.05038592
3	0xbd6ca170	-0.057771146
4	0xbde68a68	-0.11256868
5	0xbc85f8f4	-0.016354062
6	0x3cd5b7a0	0.026088536
7	0x3dee59e8	0.11638242
8	0x3d7a169d	0.061056722
9	0x3d3c5b70	0.04598564
10	0xbd42cf3e	-0.047560923
11	0xbe185cb3	-0.14879112
12	0xbd508dfe	-0.050916664
13	0x3d7f3418	0.06230554
14	0x3d48fe18	0.049070448
15	0xbda7289d	-0.08162043
16	0xbdbdd2ca	-0.092687204
17	0x3d0c429c	0.03424321
18	0xbdc59480	-0.09647465
19	0x3d6482f3	0.055788945
20	0x3de1c57a	0.11023994
21	0xbdd1701d	-0.10226462
22	0xbda9b4de	-0.08286451
23	0xbdd76fd8	-0.105193794
24	0xbd072008	-0.03298953
25	0xbe0bfdfc	-0.13671106
26	0xbc825180	-0.015908003
27	0x3db3b725	0.087751664
28	0x3cc59d10	0.024122745
29	0x3db0cb39	0.08632512
30	0xbbc98da0	-0.006150916
31	0xbd5d305c	-0.054001197
32	0xbe10f0a4	-0.14154297
33	0x3c952e2a	0.01821049
34	0xbe00cc1f	-0.12577866
35	0xbdd0a5e1	-0.10187889
36	0x3d913f90	0.07092202
37	0xbd979e10	-0.07403195
38	0x3db313a8	0.087439835
39	0x3c7e89a0	0.015535742
40	0x3d964151	0.07336677
41	0xbe209529	-0.156819
42	0x3d0ed9f8	0.03487584
43	0xbde7748c	-0.113015264
44	0xbdee3cf0	-0.11632717
45	0x3d369cd4	0.044583157
46	0xbdd8dbed	-0.105888225
47	0x3bb3d4c0	0.0054880083
48	0xbc51179e	-0.012761978
49	0x3dbc4002	0.09191896
50	0xbdeda9f3	-0.11604681
51	0xbdbd1fb4	-0.092345625
52	0x3bc330c5	0.0059567415
53	0xbdc7a880	-0.09748936
54	0x3c447ce6	0.011992669
55	0xbdfb5cae	-0.122735366
56	0xbdae0b86	-0.08498292
57	0x3d300105	0.042969722
58	0xbbb7327d	-0.0055907355
59	0xbdd5ded7	-0.10442894
60	0xbd9aa794	-0.07551494
61	0x3d98d197	0.07461851
62	0xbd832a00	-0.06404495
63	0xbdc7821d	-0.09741614
64	0x3db6dcdc	0.08928844
65	0xbe28cdba	-0.16484728
66	0x3ce23c73	0.027616715
67	0x3b7a1540	0.0038159639
68	0xbd0f88ac	-0.03504245
69	0x3c51086f	0.012758358
70	0xbdae2313	-0.085027836
71	0x3d847c95	0.06469075
72	0x3bc1c537	0.0059134024
73	0xbdfb115e	-0.12259172
74	0x3d3bf614	0.045888975
75	0xbdbd5634	-0.092449576
76	0xbde2131b	-0.110388
77	0x3d596964	0.053079024
78	0x3dd39450	0.10331023
79	0x3c7c76ff	0.01540923
80	0x3d4b061c	0.049566373
81	0xbc7ceb80	-0.015437007
82	0xbde4be6a	-0.11169131
83	0x3ce64e37	0.028113468
84	0x3db3984d	0.087692834
85	0xbe00b2e4	-0.12568241
86	0xbdd3bb8e	-0.103385076
87	0xbdff90ab	-0.12478765
88	0xbdea7f6a	-0.114500836
89	0xbdab87cb	-0.0837551
90	0x3d37875c	0.044806823
91	0xbdb600a1	-0.08886839
92	0xbde8209c	-0.11334345
93	0xbe032c77	-0.1280993
94	0xbdf8d6de	-0.12150358
95	0xbe0ef852	-0.13961914
96	0xbda8a06c	-0.08233723
97	0x3a931f49	0.0011224534
98	0x3d4008f1	0.046883527
99	0xbcf2c9ce	-0.029637244
100	0xbda33d88	-0.079707205
101	0x3dd56627	0.10419875
102	0xbd84e045	-0.064880885
103	0x3dbcdc9e	0.09221767
104	0x3d513e69	0.05108491
105	0xbe2490b8	-0.16070831
106	0xbce69f0e	-0.028152015
107	0xbde94ebc	-0.113919705
108	0xbde2c27c	-0.11072251
109	0xbc985358	-0.018594429
110	0xbd9fab89	-0.077963896
111	0xbd900cf8	-0.070337236
112	0x3d60f7fc	0.054923996
113	0x3c452055	0.012031634
114	0xbe06265f	-0.13100575
115	0x3c469c03	0.012122157
116	0xbc8b372f	-0.016994087
117	0x3acbfeeb	0.0015563642
118	0x3ddf0858	0.10890263
119	0xbd5c1cb4	-0.05373831
120	0xbc71f03f	-0.014766752
121	0xbd7ade21	-0.061246995
122	0xbe1572c1	-0.14594556
123	0x3d8b0120	0.06787324
124	0x3d99530f	0.07486545
125	0xbd1d324c	-0.038378045
126	0xbd92d0d6	-0.071687385
127	0xbd913899	-0.07090873
128	0xbdc9bee2	-0.09850861
129	0xbd86217f	-0.065493576
130	0x3dc97722	0.09837176
131	0x3d44a715	0.048010904
132	0xbda4605e	-0.08026193
133	0xbde014e0	-0.109414816
134	0xbd13de14	-0.036100462
135	0xbdc4e5d0	-0.09614146
136	0x3caba3a0	0.020952046
137	0xbdbedece	-0.0931984
138	0x3d11ed68	0.0356268
139	0x3ddcbe72	0.10778512
140	0x3d07b120	0.033127904
141	0x3de2bfb8	0.11071724
142	0x3de08d8c	0.10964498
143	0xbe0e2c2a	-0.13884035
144	0x3d817cf0	0.06322658
145	0x3dd7ce2c	0.10537371
146	0xbdbe5e5b	-0.092953406
147	0x3d719f20	0.058989644
148	0xbdf40a94	-0.1191608
149	0x3d0406d8	0.03223309
150	0x3d8a15bc	0.06742427
151	0xbe70c878	-0.23513973
152	0x3dae125c	0.084995955
153	0xbd426fef	-0.04747003
154	0xbdd31f32	-0.103086844
155	0xbdf253ee	-0.118324146
156	0xbe079fa8	-0.13244498
157	0xbdfb9ac4	-0.122853786
158	0x3da4c51e	0.080454096
159	0xbd7b9795	-0.061423857
160	0x3d2b7d6a	0.04186765
161	0xbd68a784	-0.05680038
162	0xbe364f94	-0.17803794
163	0xbe5ca84b	-0.21548574
164	0xbd99abc0	-0.07503462
165	0xbbca0271	-0.006164842
166	0x3dc0feac	0.09423575
167	0x3d8bd59c	0.06827852
168	0xbe5abc0a	-0.21360794
169	0x3d887163	0.06662252
170	0x3de347ec	0.110977024
171	0x3de81de8	0.11333829
172	0x3dce1174	0.10061923
173	0x3dfeede3	0.12447717
174	0xbe4c95d3	-0.19979028
175	0x3d897a24	0.067127496
176	0xbd52e06c	-0.051483557
177	0x3c4003f0	0.011719689
178	0xbd447888	-0.04796651
179	0xbd6a03d4	-0.057132557
180	0x3c6b70e0	0.014370173
181	0xbea2eed6	-0.31822842
182	0xbda4915a	-0.08035536
183	0x3df59dc5	0.11992983
184	0xbbf0be66	-0.007346916
185	0xbcd76e98	-0.026297852
186	0x3d2b6887	0.041847732
187	0xbe0333d3	-0.12812738
188	0xbd3dc5b0	-0.046331108
189	0x3d7254b4	0.05916281
190	0xbdc9608f	-0.0983287
191	0x3d931e78	0.07183546
192	0xbd5acbc9	-0.053417
193	0xbdee9f99	-0.116515346
194	0x3da48cee	0.08034693
195	0x3dc146ae	0.09437309
196	0x3d32f820	0.04369366
197	0xbd9e6c7e	-0.07735537
198	0x3cc3e07f	0.023910759
199	0xbd5a493a	-0.05329249
200	0x3d889543	0.066690944
201	0xbd5fed5c	-0.054669723
202	0xbd94a7a6	-0.07258539
203	0x3d346282	0.044039257
204	0x3da3feb0	0.08007562
205	0x3d4f88c5	0.050667543
206	0x3cec9f40	0.02888453
207	0xbe09d0ef	-0.13458608
208	0x3df24a92	0.118306294
209	0xbca85d28	-0.020552233
210	0x3cc21e74	0.023696162
211	0xbd9dbc94	-0.07701984
212	0x3d90f128	0.07077247
213	0xbc4a9974	-0.012365688
214	0xbde844b8	-0.11341232
215	0xbd65622f	-0.05600184
216	0x3d6d930c	0.058001563
217	0xbb5d9d79	-0.0033815785
218	0xbd64f218	-0.05589494
219	0xbd662777	-0.05618998
220	0xbdb220e2	-0.08697678
221	0x3d8054db	0.06266185
222	0xbdc809c2	-0.09767486
223	0xbe4a0339	-0.19727792
224	0xbe1f5187	-0.15558444
225	0x3dbdd446	0.092690036
226	0xbd815e7a	-0.06316848
227	0x3ce22b22	0.027608458
228	0x3d45d438	0.04829809
229	0x3bf302a4	0.0074160863
230	0x3dac4052	0.084107056
231	0x3d7620c8	0.060089856
232	0x3db177ca	0.08665426
233	0x3d565f8b	0.05233721
234	0xbc675600	-0.014119625
235	0x3d252ed8	0.040327877
236	0x3d2ff898	0.042961687
237	0x3dfb4e06	0.12270741
238	0xbe388d0f	-0.1802256
239	0x3c931b98	0.017957494
240	0xbe10a26d	-0.1412446
241	0x3d7b7704	0.0613928
242	0xbd8e7fe4	-0.06957987
243	0xbd38e347	-0.045138624
244	0xbd5c83a8	-0.053836495
245	0xbe14bd14	-0.14525253
246	0xbdebbcb1	-0.115105994
247	0x3d12d634	0.03584881
248	0xbb519beb	-0.0031983803
249	0xbdd7ee3e	-0.10543488
250	0xbdbbf5de	-0.09177755
251	0x3c36e1dc	0.0111622475
252	0xbdd63209	-0.10458762
253	0x3b3885b0	0.0028155856
254	0x3c844c36	0.016149621
255	0x3c918d24	0.017767496

hidden_layers.3.bias f4 [64]
0	0xbbf41d01	-0.0074497466
1	0x3d1a4429	0.03766266
2	0xbd78a78e	-0.060706668
3	0xbdad560e	-0.08463679
4	0x3ed5e814	0.41778624
5	0xbe1c9d7d	-0.15294452
6	0xbdd26ff0	-0.10275257
7	0x3ed05d98	0.40696406
8	0xbe03672b	-0.12832324
9	0xbdeea33d	-0.11652229
10	0x3f0495c7	0.5179104
11	0x3ed822c4	0.42214024
12	0x3f0479ce	0.5174836
13	0xbddf5e50	-0.109066606
14	0x3ed26c77	0.41098377
15	0x3ef63163	0.48084554
16	0xbdf3b763	-0.119002126
17	0xbd94eb85	-0.07271484
18	0xbd9a11ed	-0.0752295
19	0xbcb16be0	-0.021657884
20	0x3eed2ee0	0.46324825
21	0xbd718786	-0.058967136
22	0x3c3ba5e1	0.011453123
23	0x3e9ef671	0.31047395
24	0x3f1bc30d	0.608445
25	0xbb080d80	-0.002076
26	0x3ed9b731	0.42522576
27	0x3ebce13d	0.36890593
28	0x3c02cc21	0.007983238
29	0xbd446364	-0.04794635
30	0xbda95861	-0.0826881
31	0xbcdeb94f	-0.027187971
32	0xbc968a83	-0.018376594
33	0xbdb9fa8b	-0.090809904
34	0xbd8e22e6	-0.0694025
35	0xbe23a7c5	-0.15981968
36	0x3f10439a	0.5635315
37	0xbd9ff05a	-0.07809515
38	0xbde72cca	-0.1128784
39	0x3d22630c	0.03964524
40	0xbdb05222	-0.086094156
41	0x3f10e719	0.5660263
42	0x3f0e52f0	0.555953
43	0xbdd85c50	-0.10564482
44	0x3e9ce22f	0.30641314
45	0x3ef9a435	0.48758093
46	0x3de32074	0.11090174
47	0x3ed856c9	0.42253712
48	0x3ce40d0f	0.027838258
49	0x3b354169	0.0027657396
50	0x3ee1b915	0.4408652
51	0x3e44cbe2	0.192184
52	0xbd2d7e46	-0.04235675
53	0x3c4fd147	0.012684173
54	0x3f05be31	0.52243334
55	0x3ef53564	0.47892296
56	0x3ef3ea6a	0.4763978
57	0x3d5f1201	0.05446053
58	0x3f0a9f68	0.54149485
59	0x3f18d49c	0.59699416
60	0x3adb283d	0.0016720366
61	0x3d5dc6db	0.05414472
62	0xbda28e71	-0.07937325
63	0x3f26cdff	0.65158075

hidden_layers.4.weight f4 [64, 64]
0	0xbd8699aa	-0.06572278
1	0xbdb28600	-0.08716965
2	0xbdbaa691	-0.09113801
3	0xbd79ed34	-0.06101723
4	0xbe411689	-0.18856253
5	0x3ccac588	0.024752393
6	0xbda522d8	-0.080632865
7	0xbe0974c2	-0.13423446
8	0xbd95c1c0	-0.073123455
9	0xbd5d73e4	-0.0540656
10	0xbda51ec0	-0.08062506
11	0xbd21a33b	-0.03946231
12	0x3d92eb08	0.07173735
13	0xbda3910a	-0.079866484
14	0xbdc40282	-0.09570791
15	0x3c98edae	0.018668022
16	0x3df5c09c	0.11999628
17	0x3b8ae5e0	0.004238829
18	0xbdacfb74	-0.084463984
19	0x3dc01a6e	0.09380041
20	0xbd223bc5	-0.039607782
21	0xbd37e64c	-0.044897363
22	0xbd35e0b8	-0.04440376
23	0xbdfb6b16	-0.122762844
24	0x3dc6784e	0.09690915
25	0xbc612a6d	-0.013743025
26	0xbe378a17	-0.17923771
27	0x3dd34a59	0.10316915
28	0xbcd60db0	-0.026129574
29	0xbdc5cd48	-0.09658295
30	0x3dbfee0c	0.09371576
31	0x3dbc757e	0.09202097
32	0x3cab794d	0.020931864
33	0xbd7a8dd0	-0.0611704
34	0x3d813490	0.063088536
35	0x3cccc4d7	0.024996204
36	0xbdfd9c3c	-0.12383315
37	0x3d5277f5	0.05138393
38	0x3dd0a8de	0.10188459
39	0x3e2a701b	0.16644327
40	0xbce26b60	-0.027639091
41	0xbdd346d0	-0.10316241
42	0x3b5c4400	0.0033609867
43	0xbd923a7e	-0.07140063
44	0xbdbacd70	-0.09121215
45	0x3d4cfb1a	0.050044157
46	0xbdece242	-0.11566593
47	0xbb2a7df5	-0.0026015018
48	0x3c783280	0.015148759
49	0xbc577a60	-0.013151735
50	0x3c1e2902	0.009653332
51	0x3df3e920	0.119096994
52	0x3cf960d0	0.030441672
53	0xbd787dcc	-0.060666844
54	0xbd0eb45a	-0.034839965
55	0xbd8793c2	-0.066199794
56	0x3d8a30f9	0.06747622
57	0x3d614b88	0.055003673
58	0xbd7babd8	-0.06144318
59	0x3da29748	0.07939011
60	0x3d8c0aca	0.06837995
61	0xbd96edb8	-0.0736956
62	0x3d660a20	0.056162
63	0x3d1c3512	0.03813655
64	0xbdc6d57c	-0.09708688
65	0x3ddae049	0.1068731
66	0x3dfcb850	0.12339842
67	0x3d13ba9c	0.036066636
68	0xbae69c9e	-0.0017594283
69	0x3dc1bc1e	0.09459709
70	0x3de10f1a	0.109892085
71	0xbd743d30	-0.059628665
72	0x3dc2c3af	0.0950998
73	0xbdca2cdc	-0.098718375
74	0xbde7ad4b	-0.1131235
75	0xbc5bdfba	-0.01342004
76	0xbce7d13e	-0.028298017
77	0x3b7a5330	0.0038196556
78	0x3da1990f	0.07890522
79	0x3e060aa9	0.13090004
80	0xbd6bcc9b	-0.057568174
81	0xbd4360f2	-0.047699876
82	0x3e0226d4	0.12710124
83	0x3da58a73	0.08083048
84	0xbdf69d04	-0.12041667
85	0xbd85f517	-0.06540888
86	0xbd7e71ae	-0.062120132
87	0x3d91b3d4	0.071143776
88	0xbdfe889f	-0.12428402
89	0x3ed87bd1	0.42281964
90	0xbdc41096	-0.09573476
91	0xbd829779	-0.06376547
92	0x3d817dec	0.06322846
93	0x3d011207	0.031511333
94	0xbcb3ca68	-0.0219471
95	0xbd91d513	-0.07120719
96	0xbceac07a	-0.028656233
97	0xbdf287f1	-0.11842335
98	0x3e1c8d89	0.15288366
99	0x3cc10c00	0.023565292
100	0x3cbc8b0c	0.023015521
101	0xbd9e04aa	-0.07715733
102	0x3dfe80f0	0.124269366
103	0xbdc46c09	-0.095909186
104	0xbce000d0	-0.027344137
105	0xbda41355	-0.080115
106	0x3db6b2e7	0.08920842
107	0xbdb55416	-0.08853929
108	0xbdaf034e	-0.08545552
109	0xbe2b935f	-0.16755436
110	0x3de74f40	0.112944126
111	0x3c629b19	0.0138309235
112	0xbb81ad20	-0.0039574057
113	0xbba44914	-0.0050135944
114	0xbd7012c9	-0.058611665
115	0xbdfe5dac	-0.1242021
116	0xbdc0cec6	-0.09414439
117	0xbcf083c9	-0.029359715
118	0xbde50981	-0.11183453
119	0x3da60a12	0.081073895
120	0x3cb13853	0.021633303
121	0xbdc923db	-0.09821292
122	0xbb63ff6d	-0.0034789697
123	0x3d644782	0.055732258
124	0xbd90218d	-0.07037649
125	0x3d39d349	0.045367513
126	0xbcab386b	-0.020900926
127	0xbdf3f1f1	-0.11911381
128	0xbc5d6887	-0.013513691
129	0x3d1b9fd5	0.037994225
130	0xbd42fbbf	-0.047603365
131	0x3d5ee71c	0.05441962
132	0x3dbcf7ce	0.092269525
133	0x3d2e0be0	0.042491794
134	0x3c3b01f7	0.011414043
135	0x3dcc2d7b	0.09969612
136	0x3e144e50	0.14482999
137	0x3da16bef	0.07881915
138	0xbd88641f	-0.066597216
139	0x3cb08f2e	0.021552648
140	0x3d599c2f	0.053127464
141	0x3d85d36a	0.06534465
142	0x3accb760	0.0015618615
143	0x3d8f1442	0.06986286
144	0x3d65a793	0.056068014
145	0x3d927b7c	0.07152459
146	0xbdf701e6	-0.12060909
147	0x3d8ad6bc	0.067792386
148	0x3df410e8	0.11917287
149	0x3ce1d5d2	0.027567778
150	0xbdc69fa2	-0.09698416
151	0x3d91e6d2	0.071241036
152	0xbd29beae	-0.041441612
153	0x3ee80b2d	0.45321026
154	0x3e116753	0.14199571
155	0xbd41f952	-0.04735691
156	0x3d7bfe55	0.061521847
157	0xbd90fdb1	-0.07079638
158	0xbd566379	-0.05234096
159	0x3e0b41ff	0.13599394
160	0x3e115109	0.14191069
161	0x3dee69b1	0.11641253
162	0xbc5d4c21	-0.01350692
163	0xbd66be0a	-0.05633358
164	0x3e1f9507	0.15584193
165	0xbb1f52cc	-0.0024310825
166	0xbce2b51c	-0.02767425
167	0x3dd18648	0.1023069
168	0xbcd73dc5	-0.026274571
169	0x3d3bb7d6	0.045829616
170	0x3d05ad69	0.03263608
171	0xbceaddaa	-0.02867015
172	0x3d9245c4	0.07142213
173	0x3debf2c2	0.11520912
174	0xbda2ce24	-0.079494745
175	0x3dae6274	0.08514872
176	0xbda29c21	-0.079399355
177	0xbd893fb3	-0.06701603
178	0xbda1adc8	-0.07894474
179	0x3e15739b	0.14594881
180	0x3d0e1436	0.034687243
181	0xbde2c50d	-0.11072741
182	0xbd29f71e	-0.041495435
183	0x3d911b10	0.0708524
184	0x3dacf8f1	0.08445919
185	0x3d345e05	0.044034977
186	0x3cac087a	0.021000136
187	0x3e1670a2	0.14691404
188	0x3b848e0b	0.004045253
189	0xbd9e8607	-0.077404074
190	0x3de72a9e	0.112874255
191	0x3d2feab1	0.04294843
192	0xbd5f71d4	-0.054551914
193	0xbcf50869	-0.029911237
194	0x3e04859d	0.12941594
195	0x3d09464f	0.033514317
196	0x3d15b84a	0.036552705
197	0x3d887eff	0.066648476
198	0x3d513beb	0.051082533
199	0xbb36cedd	-0.0027894296
200	0xbd11c19c	-0.03558503
201	0xbd80bdac	-0.06286177
202	0x3d28bc76	0.041195355
203	0xbc8506f1	-0.016238661
204	0x3e3f31d2	0.18671349
205	0xbb6d6e20	-0.003622897
206	0x3e160149	0.14648928
207	0xbb8e455c	-0.0043417644
208	0xbdf2edc3	-0.11861756
209	0x3db164c5	0.086617984
210	0x3d9e1ace	0.07719956
211	0xbd767b4f	-0.06017619
212	0x3d8573f5	0.06516258
213	0xbdcad266	-0.099034116
214	0x3da5a893	0.080887936
215	0x3dc616f4	0.09672347
216	0x3dbd9040	0.09256029
217	0x3ee0775a	0.43841058
218	0xbd901be3	-0.07036569
219	0x3d70524a	0.058672227
220	0xbd7ad6fc	-0.06124018
221	0xbc9015c0	-0.017588496
222	0x3cd02d9b	0.025412371
223	0x3db5bd1b	0.0887396
224	0x3e055930	0.13022304
225	0x3dc2ac1f	0.09505486
226	0x3e2b25f1	0.16713692
227	0xbcbe6acc	-0.023244284
228	0x3d5ceac6	0.053934835
229	0x3c27a18b	0.010231386
230	0x3d228553	0.03967793
231	0xbd9b7df9	-0.07592387
232	0xba4071db	-0.00073411845
233	0x3e3c5b96	0.18394312
234	0x3de46f99	0.11154098
235	0xbdb0b0a3	-0.08627441
236	0xbddccb74	-0.10780993
237	0x3e034e7d	0.1282291
238	0x3dc9a612	0.098461285
239	0x3dd20740	0.10255289
240	0x3d2cd4aa	0.042195
241	0x3c8ab563	0.016932195
242	0x3cbda91f	0.023151932
243	0x3e00d67b	0.12581818
244	0x3d5418da	0.051781513
245	0xba41cf67	-0.0007393271
246	0xbd7e0bc0	-0.062022924
247	0x3d835bc4	0.06413987
248	0xbc31c459	-0.010850036
249	0x3b84b5f5	0.0040500113
250	0xbcf62fb0	-0.030052036
251	0x3c8b083c	0.0169717
252	0x3cf2ec15	0.029653588
253	0x3df27eed	0.118406154
254	0xbd68830a	-0.056765594
255	0x3d653db9	0.055967066
